<?xml version="1.0"?>
<net name="Model3" version="11">
	<layers>
		<layer id="0" name="state" type="Parameter" version="opset1">
			<data shape="1,6" element_type="f32" />
			<output>
				<port id="0" precision="FP32" names="state">
					<dim>1</dim>
					<dim>6</dim>
				</port>
			</output>
		</layer>
		<layer id="1" name="images.top" type="Parameter" version="opset1">
			<data shape="1,3,384,384" element_type="f32" />
			<output>
				<port id="0" precision="FP32" names="images.top">
					<dim>1</dim>
					<dim>3</dim>
					<dim>384</dim>
					<dim>384</dim>
				</port>
			</output>
		</layer>
		<layer id="2" name="images.head" type="Parameter" version="opset1">
			<data shape="1,3,384,384" element_type="f32" />
			<output>
				<port id="0" precision="FP32" names="images.head">
					<dim>1</dim>
					<dim>3</dim>
					<dim>384</dim>
					<dim>384</dim>
				</port>
			</output>
		</layer>
		<layer id="3" name="images.right" type="Parameter" version="opset1">
			<data shape="1,3,384,384" element_type="f32" />
			<output>
				<port id="0" precision="FP32" names="images.right">
					<dim>1</dim>
					<dim>3</dim>
					<dim>384</dim>
					<dim>384</dim>
				</port>
			</output>
		</layer>
		<layer id="4" name="images.left" type="Parameter" version="opset1">
			<data shape="1,3,384,384" element_type="f32" />
			<output>
				<port id="0" precision="FP32" names="images.left">
					<dim>1</dim>
					<dim>3</dim>
					<dim>384</dim>
					<dim>384</dim>
				</port>
			</output>
		</layer>
		<layer id="5" name="__module._model/aten::zeros/Convert_compressed" type="Const" version="opset1">
			<data element_type="f16" shape="" offset="0" size="2" />
			<output>
				<port id="0" precision="FP16" />
			</output>
		</layer>
		<layer id="6" name="__module._model/aten::zeros/Convert" type="Convert" version="opset1">
			<data destination_type="f32" />
			<rt_info>
				<attribute name="decompression" version="0" />
			</rt_info>
			<input>
				<port id="0" precision="FP16" />
			</input>
			<output>
				<port id="1" precision="FP32" />
			</output>
		</layer>
		<layer id="7" name="Constant_95761" type="Const" version="opset1">
			<data element_type="i64" shape="1" offset="2" size="8" />
			<rt_info>
				<attribute name="precise" version="0" />
			</rt_info>
			<output>
				<port id="0" precision="I64">
					<dim>1</dim>
				</port>
			</output>
		</layer>
		<layer id="8" name="Constant_148875_compressed" type="Const" version="opset1">
			<data element_type="f16" shape="1, 3, 1, 1" offset="10" size="6" />
			<output>
				<port id="0" precision="FP16">
					<dim>1</dim>
					<dim>3</dim>
					<dim>1</dim>
					<dim>1</dim>
				</port>
			</output>
		</layer>
		<layer id="9" name="Constant_148875" type="Convert" version="opset1">
			<data destination_type="f32" />
			<rt_info>
				<attribute name="decompression" version="0" />
			</rt_info>
			<input>
				<port id="0" precision="FP16">
					<dim>1</dim>
					<dim>3</dim>
					<dim>1</dim>
					<dim>1</dim>
				</port>
			</input>
			<output>
				<port id="1" precision="FP32">
					<dim>1</dim>
					<dim>3</dim>
					<dim>1</dim>
					<dim>1</dim>
				</port>
			</output>
		</layer>
		<layer id="10" name="__module._input_normalizer/aten::sub/Subtract_1" type="Add" version="opset1">
			<data auto_broadcast="numpy" />
			<input>
				<port id="0" precision="FP32">
					<dim>1</dim>
					<dim>3</dim>
					<dim>384</dim>
					<dim>384</dim>
				</port>
				<port id="1" precision="FP32">
					<dim>1</dim>
					<dim>3</dim>
					<dim>1</dim>
					<dim>1</dim>
				</port>
			</input>
			<output>
				<port id="2" precision="FP32" names="48">
					<dim>1</dim>
					<dim>3</dim>
					<dim>384</dim>
					<dim>384</dim>
				</port>
			</output>
		</layer>
		<layer id="11" name="Constant_148876_compressed" type="Const" version="opset1">
			<data element_type="f16" shape="1, 3, 1, 1" offset="16" size="6" />
			<output>
				<port id="0" precision="FP16">
					<dim>1</dim>
					<dim>3</dim>
					<dim>1</dim>
					<dim>1</dim>
				</port>
			</output>
		</layer>
		<layer id="12" name="Constant_148876" type="Convert" version="opset1">
			<data destination_type="f32" />
			<rt_info>
				<attribute name="decompression" version="0" />
			</rt_info>
			<input>
				<port id="0" precision="FP16">
					<dim>1</dim>
					<dim>3</dim>
					<dim>1</dim>
					<dim>1</dim>
				</port>
			</input>
			<output>
				<port id="1" precision="FP32">
					<dim>1</dim>
					<dim>3</dim>
					<dim>1</dim>
					<dim>1</dim>
				</port>
			</output>
		</layer>
		<layer id="13" name="__module._input_normalizer/aten::div/Divide_1" type="Divide" version="opset1">
			<data auto_broadcast="numpy" m_pythondiv="true" />
			<input>
				<port id="0" precision="FP32">
					<dim>1</dim>
					<dim>3</dim>
					<dim>384</dim>
					<dim>384</dim>
				</port>
				<port id="1" precision="FP32">
					<dim>1</dim>
					<dim>3</dim>
					<dim>1</dim>
					<dim>1</dim>
				</port>
			</input>
			<output>
				<port id="2" precision="FP32" names="50,input.5">
					<dim>1</dim>
					<dim>3</dim>
					<dim>384</dim>
					<dim>384</dim>
				</port>
			</output>
		</layer>
		<layer id="14" name="Multiply_148052_compressed" type="Const" version="opset1">
			<data element_type="f16" shape="64, 3, 7, 7" offset="22" size="18816" />
			<output>
				<port id="0" precision="FP16">
					<dim>64</dim>
					<dim>3</dim>
					<dim>7</dim>
					<dim>7</dim>
				</port>
			</output>
		</layer>
		<layer id="15" name="Multiply_148052" type="Convert" version="opset1">
			<data destination_type="f32" />
			<rt_info>
				<attribute name="decompression" version="0" />
			</rt_info>
			<input>
				<port id="0" precision="FP16">
					<dim>64</dim>
					<dim>3</dim>
					<dim>7</dim>
					<dim>7</dim>
				</port>
			</input>
			<output>
				<port id="1" precision="FP32">
					<dim>64</dim>
					<dim>3</dim>
					<dim>7</dim>
					<dim>7</dim>
				</port>
			</output>
		</layer>
		<layer id="16" name="__module._model.backbone.bn1/aten::mul/Multiply_1" type="Convolution" version="opset1">
			<data strides="2, 2" dilations="1, 1" pads_begin="3, 3" pads_end="3, 3" auto_pad="explicit" />
			<input>
				<port id="0" precision="FP32">
					<dim>1</dim>
					<dim>3</dim>
					<dim>384</dim>
					<dim>384</dim>
				</port>
				<port id="1" precision="FP32">
					<dim>64</dim>
					<dim>3</dim>
					<dim>7</dim>
					<dim>7</dim>
				</port>
			</input>
			<output>
				<port id="2" precision="FP32" names="279">
					<dim>1</dim>
					<dim>64</dim>
					<dim>192</dim>
					<dim>192</dim>
				</port>
			</output>
		</layer>
		<layer id="17" name="__module._model.backbone.bn1/aten::add/Multiply_1_compressed" type="Const" version="opset1">
			<data element_type="f16" shape="1, 64, 1, 1" offset="18838" size="128" />
			<output>
				<port id="0" precision="FP16">
					<dim>1</dim>
					<dim>64</dim>
					<dim>1</dim>
					<dim>1</dim>
				</port>
			</output>
		</layer>
		<layer id="18" name="__module._model.backbone.bn1/aten::add/Multiply_1" type="Convert" version="opset1">
			<data destination_type="f32" />
			<rt_info>
				<attribute name="decompression" version="0" />
			</rt_info>
			<input>
				<port id="0" precision="FP16">
					<dim>1</dim>
					<dim>64</dim>
					<dim>1</dim>
					<dim>1</dim>
				</port>
			</input>
			<output>
				<port id="1" precision="FP32">
					<dim>1</dim>
					<dim>64</dim>
					<dim>1</dim>
					<dim>1</dim>
				</port>
			</output>
		</layer>
		<layer id="19" name="__module._model.backbone.bn1/aten::add/Add_1" type="Add" version="opset1">
			<data auto_broadcast="numpy" />
			<input>
				<port id="0" precision="FP32">
					<dim>1</dim>
					<dim>64</dim>
					<dim>192</dim>
					<dim>192</dim>
				</port>
				<port id="1" precision="FP32">
					<dim>1</dim>
					<dim>64</dim>
					<dim>1</dim>
					<dim>1</dim>
				</port>
			</input>
			<output>
				<port id="2" precision="FP32" names="280_1">
					<dim>1</dim>
					<dim>64</dim>
					<dim>192</dim>
					<dim>192</dim>
				</port>
			</output>
		</layer>
		<layer id="20" name="__module._model.backbone.relu/aten::relu_/Relu" type="ReLU" version="opset1">
			<input>
				<port id="0" precision="FP32">
					<dim>1</dim>
					<dim>64</dim>
					<dim>192</dim>
					<dim>192</dim>
				</port>
			</input>
			<output>
				<port id="1" precision="FP32" names="280,input.7">
					<dim>1</dim>
					<dim>64</dim>
					<dim>192</dim>
					<dim>192</dim>
				</port>
			</output>
		</layer>
		<layer id="21" name="__module._model.backbone.maxpool/aten::max_pool2d/MaxPool" type="MaxPool" version="opset14">
			<data strides="2, 2" dilations="1, 1" pads_begin="1, 1" pads_end="1, 1" kernel="3, 3" rounding_type="floor" auto_pad="explicit" index_element_type="i64" axis="2" />
			<input>
				<port id="0" precision="FP32">
					<dim>1</dim>
					<dim>64</dim>
					<dim>192</dim>
					<dim>192</dim>
				</port>
			</input>
			<output>
				<port id="1" precision="FP32" names="286,input.11">
					<dim>1</dim>
					<dim>64</dim>
					<dim>96</dim>
					<dim>96</dim>
				</port>
				<port id="2" precision="I64">
					<dim>1</dim>
					<dim>64</dim>
					<dim>96</dim>
					<dim>96</dim>
				</port>
			</output>
		</layer>
		<layer id="22" name="Multiply_148056_compressed" type="Const" version="opset1">
			<data element_type="f16" shape="64, 64, 3, 3" offset="18966" size="73728" />
			<output>
				<port id="0" precision="FP16">
					<dim>64</dim>
					<dim>64</dim>
					<dim>3</dim>
					<dim>3</dim>
				</port>
			</output>
		</layer>
		<layer id="23" name="Multiply_148056" type="Convert" version="opset1">
			<data destination_type="f32" />
			<rt_info>
				<attribute name="decompression" version="0" />
			</rt_info>
			<input>
				<port id="0" precision="FP16">
					<dim>64</dim>
					<dim>64</dim>
					<dim>3</dim>
					<dim>3</dim>
				</port>
			</input>
			<output>
				<port id="1" precision="FP32">
					<dim>64</dim>
					<dim>64</dim>
					<dim>3</dim>
					<dim>3</dim>
				</port>
			</output>
		</layer>
		<layer id="24" name="__module._model.backbone.layer1.0.bn1/aten::mul/Multiply_1" type="Convolution" version="opset1">
			<data strides="1, 1" dilations="1, 1" pads_begin="1, 1" pads_end="1, 1" auto_pad="explicit" />
			<input>
				<port id="0" precision="FP32">
					<dim>1</dim>
					<dim>64</dim>
					<dim>96</dim>
					<dim>96</dim>
				</port>
				<port id="1" precision="FP32">
					<dim>64</dim>
					<dim>64</dim>
					<dim>3</dim>
					<dim>3</dim>
				</port>
			</input>
			<output>
				<port id="2" precision="FP32" names="316">
					<dim>1</dim>
					<dim>64</dim>
					<dim>96</dim>
					<dim>96</dim>
				</port>
			</output>
		</layer>
		<layer id="25" name="__module._model.backbone.layer1.0.bn1/aten::add/Multiply_1_compressed" type="Const" version="opset1">
			<data element_type="f16" shape="1, 64, 1, 1" offset="92694" size="128" />
			<output>
				<port id="0" precision="FP16">
					<dim>1</dim>
					<dim>64</dim>
					<dim>1</dim>
					<dim>1</dim>
				</port>
			</output>
		</layer>
		<layer id="26" name="__module._model.backbone.layer1.0.bn1/aten::add/Multiply_1" type="Convert" version="opset1">
			<data destination_type="f32" />
			<rt_info>
				<attribute name="decompression" version="0" />
			</rt_info>
			<input>
				<port id="0" precision="FP16">
					<dim>1</dim>
					<dim>64</dim>
					<dim>1</dim>
					<dim>1</dim>
				</port>
			</input>
			<output>
				<port id="1" precision="FP32">
					<dim>1</dim>
					<dim>64</dim>
					<dim>1</dim>
					<dim>1</dim>
				</port>
			</output>
		</layer>
		<layer id="27" name="__module._model.backbone.layer1.0.bn1/aten::add/Add_1" type="Add" version="opset1">
			<data auto_broadcast="numpy" />
			<input>
				<port id="0" precision="FP32">
					<dim>1</dim>
					<dim>64</dim>
					<dim>96</dim>
					<dim>96</dim>
				</port>
				<port id="1" precision="FP32">
					<dim>1</dim>
					<dim>64</dim>
					<dim>1</dim>
					<dim>1</dim>
				</port>
			</input>
			<output>
				<port id="2" precision="FP32" names="317_1">
					<dim>1</dim>
					<dim>64</dim>
					<dim>96</dim>
					<dim>96</dim>
				</port>
			</output>
		</layer>
		<layer id="28" name="__module._model.backbone.layer1.0.relu/aten::relu_/Relu" type="ReLU" version="opset1">
			<input>
				<port id="0" precision="FP32">
					<dim>1</dim>
					<dim>64</dim>
					<dim>96</dim>
					<dim>96</dim>
				</port>
			</input>
			<output>
				<port id="1" precision="FP32" names="317,input.13">
					<dim>1</dim>
					<dim>64</dim>
					<dim>96</dim>
					<dim>96</dim>
				</port>
			</output>
		</layer>
		<layer id="29" name="Multiply_148060_compressed" type="Const" version="opset1">
			<data element_type="f16" shape="64, 64, 3, 3" offset="92822" size="73728" />
			<output>
				<port id="0" precision="FP16">
					<dim>64</dim>
					<dim>64</dim>
					<dim>3</dim>
					<dim>3</dim>
				</port>
			</output>
		</layer>
		<layer id="30" name="Multiply_148060" type="Convert" version="opset1">
			<data destination_type="f32" />
			<rt_info>
				<attribute name="decompression" version="0" />
			</rt_info>
			<input>
				<port id="0" precision="FP16">
					<dim>64</dim>
					<dim>64</dim>
					<dim>3</dim>
					<dim>3</dim>
				</port>
			</input>
			<output>
				<port id="1" precision="FP32">
					<dim>64</dim>
					<dim>64</dim>
					<dim>3</dim>
					<dim>3</dim>
				</port>
			</output>
		</layer>
		<layer id="31" name="__module._model.backbone.layer1.0.bn2/aten::mul/Multiply_1" type="Convolution" version="opset1">
			<data strides="1, 1" dilations="1, 1" pads_begin="1, 1" pads_end="1, 1" auto_pad="explicit" />
			<input>
				<port id="0" precision="FP32">
					<dim>1</dim>
					<dim>64</dim>
					<dim>96</dim>
					<dim>96</dim>
				</port>
				<port id="1" precision="FP32">
					<dim>64</dim>
					<dim>64</dim>
					<dim>3</dim>
					<dim>3</dim>
				</port>
			</input>
			<output>
				<port id="2" precision="FP32" names="342">
					<dim>1</dim>
					<dim>64</dim>
					<dim>96</dim>
					<dim>96</dim>
				</port>
			</output>
		</layer>
		<layer id="32" name="__module._model.backbone.layer1.0.bn2/aten::add/Multiply_1_compressed" type="Const" version="opset1">
			<data element_type="f16" shape="1, 64, 1, 1" offset="166550" size="128" />
			<output>
				<port id="0" precision="FP16">
					<dim>1</dim>
					<dim>64</dim>
					<dim>1</dim>
					<dim>1</dim>
				</port>
			</output>
		</layer>
		<layer id="33" name="__module._model.backbone.layer1.0.bn2/aten::add/Multiply_1" type="Convert" version="opset1">
			<data destination_type="f32" />
			<rt_info>
				<attribute name="decompression" version="0" />
			</rt_info>
			<input>
				<port id="0" precision="FP16">
					<dim>1</dim>
					<dim>64</dim>
					<dim>1</dim>
					<dim>1</dim>
				</port>
			</input>
			<output>
				<port id="1" precision="FP32">
					<dim>1</dim>
					<dim>64</dim>
					<dim>1</dim>
					<dim>1</dim>
				</port>
			</output>
		</layer>
		<layer id="34" name="__module._model.backbone.layer1.0.bn2/aten::add/Add_1" type="Add" version="opset1">
			<data auto_broadcast="numpy" />
			<input>
				<port id="0" precision="FP32">
					<dim>1</dim>
					<dim>64</dim>
					<dim>96</dim>
					<dim>96</dim>
				</port>
				<port id="1" precision="FP32">
					<dim>1</dim>
					<dim>64</dim>
					<dim>1</dim>
					<dim>1</dim>
				</port>
			</input>
			<output>
				<port id="2" precision="FP32" names="343_1">
					<dim>1</dim>
					<dim>64</dim>
					<dim>96</dim>
					<dim>96</dim>
				</port>
			</output>
		</layer>
		<layer id="35" name="__module._model.backbone.layer1.0/aten::add_/Add" type="Add" version="opset1">
			<data auto_broadcast="numpy" />
			<input>
				<port id="0" precision="FP32">
					<dim>1</dim>
					<dim>64</dim>
					<dim>96</dim>
					<dim>96</dim>
				</port>
				<port id="1" precision="FP32">
					<dim>1</dim>
					<dim>64</dim>
					<dim>96</dim>
					<dim>96</dim>
				</port>
			</input>
			<output>
				<port id="2" precision="FP32" names="343_2">
					<dim>1</dim>
					<dim>64</dim>
					<dim>96</dim>
					<dim>96</dim>
				</port>
			</output>
		</layer>
		<layer id="36" name="__module._model.backbone.layer1.0.relu/aten::relu_/Relu_1" type="ReLU" version="opset1">
			<input>
				<port id="0" precision="FP32">
					<dim>1</dim>
					<dim>64</dim>
					<dim>96</dim>
					<dim>96</dim>
				</port>
			</input>
			<output>
				<port id="1" precision="FP32" names="344,input.17">
					<dim>1</dim>
					<dim>64</dim>
					<dim>96</dim>
					<dim>96</dim>
				</port>
			</output>
		</layer>
		<layer id="37" name="Multiply_148064_compressed" type="Const" version="opset1">
			<data element_type="f16" shape="64, 64, 3, 3" offset="166678" size="73728" />
			<output>
				<port id="0" precision="FP16">
					<dim>64</dim>
					<dim>64</dim>
					<dim>3</dim>
					<dim>3</dim>
				</port>
			</output>
		</layer>
		<layer id="38" name="Multiply_148064" type="Convert" version="opset1">
			<data destination_type="f32" />
			<rt_info>
				<attribute name="decompression" version="0" />
			</rt_info>
			<input>
				<port id="0" precision="FP16">
					<dim>64</dim>
					<dim>64</dim>
					<dim>3</dim>
					<dim>3</dim>
				</port>
			</input>
			<output>
				<port id="1" precision="FP32">
					<dim>64</dim>
					<dim>64</dim>
					<dim>3</dim>
					<dim>3</dim>
				</port>
			</output>
		</layer>
		<layer id="39" name="__module._model.backbone.layer1.1.bn1/aten::mul/Multiply_1" type="Convolution" version="opset1">
			<data strides="1, 1" dilations="1, 1" pads_begin="1, 1" pads_end="1, 1" auto_pad="explicit" />
			<input>
				<port id="0" precision="FP32">
					<dim>1</dim>
					<dim>64</dim>
					<dim>96</dim>
					<dim>96</dim>
				</port>
				<port id="1" precision="FP32">
					<dim>64</dim>
					<dim>64</dim>
					<dim>3</dim>
					<dim>3</dim>
				</port>
			</input>
			<output>
				<port id="2" precision="FP32" names="373">
					<dim>1</dim>
					<dim>64</dim>
					<dim>96</dim>
					<dim>96</dim>
				</port>
			</output>
		</layer>
		<layer id="40" name="__module._model.backbone.layer1.1.bn1/aten::add/Multiply_1_compressed" type="Const" version="opset1">
			<data element_type="f16" shape="1, 64, 1, 1" offset="240406" size="128" />
			<output>
				<port id="0" precision="FP16">
					<dim>1</dim>
					<dim>64</dim>
					<dim>1</dim>
					<dim>1</dim>
				</port>
			</output>
		</layer>
		<layer id="41" name="__module._model.backbone.layer1.1.bn1/aten::add/Multiply_1" type="Convert" version="opset1">
			<data destination_type="f32" />
			<rt_info>
				<attribute name="decompression" version="0" />
			</rt_info>
			<input>
				<port id="0" precision="FP16">
					<dim>1</dim>
					<dim>64</dim>
					<dim>1</dim>
					<dim>1</dim>
				</port>
			</input>
			<output>
				<port id="1" precision="FP32">
					<dim>1</dim>
					<dim>64</dim>
					<dim>1</dim>
					<dim>1</dim>
				</port>
			</output>
		</layer>
		<layer id="42" name="__module._model.backbone.layer1.1.bn1/aten::add/Add_1" type="Add" version="opset1">
			<data auto_broadcast="numpy" />
			<input>
				<port id="0" precision="FP32">
					<dim>1</dim>
					<dim>64</dim>
					<dim>96</dim>
					<dim>96</dim>
				</port>
				<port id="1" precision="FP32">
					<dim>1</dim>
					<dim>64</dim>
					<dim>1</dim>
					<dim>1</dim>
				</port>
			</input>
			<output>
				<port id="2" precision="FP32" names="374_1">
					<dim>1</dim>
					<dim>64</dim>
					<dim>96</dim>
					<dim>96</dim>
				</port>
			</output>
		</layer>
		<layer id="43" name="__module._model.backbone.layer1.1.relu/aten::relu_/Relu" type="ReLU" version="opset1">
			<input>
				<port id="0" precision="FP32">
					<dim>1</dim>
					<dim>64</dim>
					<dim>96</dim>
					<dim>96</dim>
				</port>
			</input>
			<output>
				<port id="1" precision="FP32" names="374,input.21">
					<dim>1</dim>
					<dim>64</dim>
					<dim>96</dim>
					<dim>96</dim>
				</port>
			</output>
		</layer>
		<layer id="44" name="Multiply_148068_compressed" type="Const" version="opset1">
			<data element_type="f16" shape="64, 64, 3, 3" offset="240534" size="73728" />
			<output>
				<port id="0" precision="FP16">
					<dim>64</dim>
					<dim>64</dim>
					<dim>3</dim>
					<dim>3</dim>
				</port>
			</output>
		</layer>
		<layer id="45" name="Multiply_148068" type="Convert" version="opset1">
			<data destination_type="f32" />
			<rt_info>
				<attribute name="decompression" version="0" />
			</rt_info>
			<input>
				<port id="0" precision="FP16">
					<dim>64</dim>
					<dim>64</dim>
					<dim>3</dim>
					<dim>3</dim>
				</port>
			</input>
			<output>
				<port id="1" precision="FP32">
					<dim>64</dim>
					<dim>64</dim>
					<dim>3</dim>
					<dim>3</dim>
				</port>
			</output>
		</layer>
		<layer id="46" name="__module._model.backbone.layer1.1.bn2/aten::mul/Multiply_1" type="Convolution" version="opset1">
			<data strides="1, 1" dilations="1, 1" pads_begin="1, 1" pads_end="1, 1" auto_pad="explicit" />
			<input>
				<port id="0" precision="FP32">
					<dim>1</dim>
					<dim>64</dim>
					<dim>96</dim>
					<dim>96</dim>
				</port>
				<port id="1" precision="FP32">
					<dim>64</dim>
					<dim>64</dim>
					<dim>3</dim>
					<dim>3</dim>
				</port>
			</input>
			<output>
				<port id="2" precision="FP32" names="399">
					<dim>1</dim>
					<dim>64</dim>
					<dim>96</dim>
					<dim>96</dim>
				</port>
			</output>
		</layer>
		<layer id="47" name="__module._model.backbone.layer1.1.bn2/aten::add/Multiply_1_compressed" type="Const" version="opset1">
			<data element_type="f16" shape="1, 64, 1, 1" offset="314262" size="128" />
			<output>
				<port id="0" precision="FP16">
					<dim>1</dim>
					<dim>64</dim>
					<dim>1</dim>
					<dim>1</dim>
				</port>
			</output>
		</layer>
		<layer id="48" name="__module._model.backbone.layer1.1.bn2/aten::add/Multiply_1" type="Convert" version="opset1">
			<data destination_type="f32" />
			<rt_info>
				<attribute name="decompression" version="0" />
			</rt_info>
			<input>
				<port id="0" precision="FP16">
					<dim>1</dim>
					<dim>64</dim>
					<dim>1</dim>
					<dim>1</dim>
				</port>
			</input>
			<output>
				<port id="1" precision="FP32">
					<dim>1</dim>
					<dim>64</dim>
					<dim>1</dim>
					<dim>1</dim>
				</port>
			</output>
		</layer>
		<layer id="49" name="__module._model.backbone.layer1.1.bn2/aten::add/Add_1" type="Add" version="opset1">
			<data auto_broadcast="numpy" />
			<input>
				<port id="0" precision="FP32">
					<dim>1</dim>
					<dim>64</dim>
					<dim>96</dim>
					<dim>96</dim>
				</port>
				<port id="1" precision="FP32">
					<dim>1</dim>
					<dim>64</dim>
					<dim>1</dim>
					<dim>1</dim>
				</port>
			</input>
			<output>
				<port id="2" precision="FP32" names="400_1">
					<dim>1</dim>
					<dim>64</dim>
					<dim>96</dim>
					<dim>96</dim>
				</port>
			</output>
		</layer>
		<layer id="50" name="__module._model.backbone.layer1.1/aten::add_/Add" type="Add" version="opset1">
			<data auto_broadcast="numpy" />
			<input>
				<port id="0" precision="FP32">
					<dim>1</dim>
					<dim>64</dim>
					<dim>96</dim>
					<dim>96</dim>
				</port>
				<port id="1" precision="FP32">
					<dim>1</dim>
					<dim>64</dim>
					<dim>96</dim>
					<dim>96</dim>
				</port>
			</input>
			<output>
				<port id="2" precision="FP32" names="400_2">
					<dim>1</dim>
					<dim>64</dim>
					<dim>96</dim>
					<dim>96</dim>
				</port>
			</output>
		</layer>
		<layer id="51" name="__module._model.backbone.layer1.1.relu/aten::relu_/Relu_1" type="ReLU" version="opset1">
			<input>
				<port id="0" precision="FP32">
					<dim>1</dim>
					<dim>64</dim>
					<dim>96</dim>
					<dim>96</dim>
				</port>
			</input>
			<output>
				<port id="1" precision="FP32" names="401,input.25">
					<dim>1</dim>
					<dim>64</dim>
					<dim>96</dim>
					<dim>96</dim>
				</port>
			</output>
		</layer>
		<layer id="52" name="Multiply_148072_compressed" type="Const" version="opset1">
			<data element_type="f16" shape="128, 64, 3, 3" offset="314390" size="147456" />
			<output>
				<port id="0" precision="FP16">
					<dim>128</dim>
					<dim>64</dim>
					<dim>3</dim>
					<dim>3</dim>
				</port>
			</output>
		</layer>
		<layer id="53" name="Multiply_148072" type="Convert" version="opset1">
			<data destination_type="f32" />
			<rt_info>
				<attribute name="decompression" version="0" />
			</rt_info>
			<input>
				<port id="0" precision="FP16">
					<dim>128</dim>
					<dim>64</dim>
					<dim>3</dim>
					<dim>3</dim>
				</port>
			</input>
			<output>
				<port id="1" precision="FP32">
					<dim>128</dim>
					<dim>64</dim>
					<dim>3</dim>
					<dim>3</dim>
				</port>
			</output>
		</layer>
		<layer id="54" name="__module._model.backbone.layer2.0.bn1/aten::mul/Multiply_1" type="Convolution" version="opset1">
			<data strides="2, 2" dilations="1, 1" pads_begin="1, 1" pads_end="1, 1" auto_pad="explicit" />
			<input>
				<port id="0" precision="FP32">
					<dim>1</dim>
					<dim>64</dim>
					<dim>96</dim>
					<dim>96</dim>
				</port>
				<port id="1" precision="FP32">
					<dim>128</dim>
					<dim>64</dim>
					<dim>3</dim>
					<dim>3</dim>
				</port>
			</input>
			<output>
				<port id="2" precision="FP32" names="433">
					<dim>1</dim>
					<dim>128</dim>
					<dim>48</dim>
					<dim>48</dim>
				</port>
			</output>
		</layer>
		<layer id="55" name="__module._model.backbone.layer2.0.bn1/aten::add/Multiply_1_compressed" type="Const" version="opset1">
			<data element_type="f16" shape="1, 128, 1, 1" offset="461846" size="256" />
			<output>
				<port id="0" precision="FP16">
					<dim>1</dim>
					<dim>128</dim>
					<dim>1</dim>
					<dim>1</dim>
				</port>
			</output>
		</layer>
		<layer id="56" name="__module._model.backbone.layer2.0.bn1/aten::add/Multiply_1" type="Convert" version="opset1">
			<data destination_type="f32" />
			<rt_info>
				<attribute name="decompression" version="0" />
			</rt_info>
			<input>
				<port id="0" precision="FP16">
					<dim>1</dim>
					<dim>128</dim>
					<dim>1</dim>
					<dim>1</dim>
				</port>
			</input>
			<output>
				<port id="1" precision="FP32">
					<dim>1</dim>
					<dim>128</dim>
					<dim>1</dim>
					<dim>1</dim>
				</port>
			</output>
		</layer>
		<layer id="57" name="__module._model.backbone.layer2.0.bn1/aten::add/Add_1" type="Add" version="opset1">
			<data auto_broadcast="numpy" />
			<input>
				<port id="0" precision="FP32">
					<dim>1</dim>
					<dim>128</dim>
					<dim>48</dim>
					<dim>48</dim>
				</port>
				<port id="1" precision="FP32">
					<dim>1</dim>
					<dim>128</dim>
					<dim>1</dim>
					<dim>1</dim>
				</port>
			</input>
			<output>
				<port id="2" precision="FP32" names="434_1">
					<dim>1</dim>
					<dim>128</dim>
					<dim>48</dim>
					<dim>48</dim>
				</port>
			</output>
		</layer>
		<layer id="58" name="__module._model.backbone.layer2.0.relu/aten::relu_/Relu" type="ReLU" version="opset1">
			<input>
				<port id="0" precision="FP32">
					<dim>1</dim>
					<dim>128</dim>
					<dim>48</dim>
					<dim>48</dim>
				</port>
			</input>
			<output>
				<port id="1" precision="FP32" names="434,input.29">
					<dim>1</dim>
					<dim>128</dim>
					<dim>48</dim>
					<dim>48</dim>
				</port>
			</output>
		</layer>
		<layer id="59" name="Multiply_148076_compressed" type="Const" version="opset1">
			<data element_type="f16" shape="128, 128, 3, 3" offset="462102" size="294912" />
			<output>
				<port id="0" precision="FP16">
					<dim>128</dim>
					<dim>128</dim>
					<dim>3</dim>
					<dim>3</dim>
				</port>
			</output>
		</layer>
		<layer id="60" name="Multiply_148076" type="Convert" version="opset1">
			<data destination_type="f32" />
			<rt_info>
				<attribute name="decompression" version="0" />
			</rt_info>
			<input>
				<port id="0" precision="FP16">
					<dim>128</dim>
					<dim>128</dim>
					<dim>3</dim>
					<dim>3</dim>
				</port>
			</input>
			<output>
				<port id="1" precision="FP32">
					<dim>128</dim>
					<dim>128</dim>
					<dim>3</dim>
					<dim>3</dim>
				</port>
			</output>
		</layer>
		<layer id="61" name="__module._model.backbone.layer2.0.bn2/aten::mul/Multiply_1" type="Convolution" version="opset1">
			<data strides="1, 1" dilations="1, 1" pads_begin="1, 1" pads_end="1, 1" auto_pad="explicit" />
			<input>
				<port id="0" precision="FP32">
					<dim>1</dim>
					<dim>128</dim>
					<dim>48</dim>
					<dim>48</dim>
				</port>
				<port id="1" precision="FP32">
					<dim>128</dim>
					<dim>128</dim>
					<dim>3</dim>
					<dim>3</dim>
				</port>
			</input>
			<output>
				<port id="2" precision="FP32" names="459">
					<dim>1</dim>
					<dim>128</dim>
					<dim>48</dim>
					<dim>48</dim>
				</port>
			</output>
		</layer>
		<layer id="62" name="__module._model.backbone.layer2.0.bn2/aten::add/Multiply_1_compressed" type="Const" version="opset1">
			<data element_type="f16" shape="1, 128, 1, 1" offset="757014" size="256" />
			<output>
				<port id="0" precision="FP16">
					<dim>1</dim>
					<dim>128</dim>
					<dim>1</dim>
					<dim>1</dim>
				</port>
			</output>
		</layer>
		<layer id="63" name="__module._model.backbone.layer2.0.bn2/aten::add/Multiply_1" type="Convert" version="opset1">
			<data destination_type="f32" />
			<rt_info>
				<attribute name="decompression" version="0" />
			</rt_info>
			<input>
				<port id="0" precision="FP16">
					<dim>1</dim>
					<dim>128</dim>
					<dim>1</dim>
					<dim>1</dim>
				</port>
			</input>
			<output>
				<port id="1" precision="FP32">
					<dim>1</dim>
					<dim>128</dim>
					<dim>1</dim>
					<dim>1</dim>
				</port>
			</output>
		</layer>
		<layer id="64" name="__module._model.backbone.layer2.0.bn2/aten::add/Add_1" type="Add" version="opset1">
			<data auto_broadcast="numpy" />
			<input>
				<port id="0" precision="FP32">
					<dim>1</dim>
					<dim>128</dim>
					<dim>48</dim>
					<dim>48</dim>
				</port>
				<port id="1" precision="FP32">
					<dim>1</dim>
					<dim>128</dim>
					<dim>1</dim>
					<dim>1</dim>
				</port>
			</input>
			<output>
				<port id="2" precision="FP32" names="460_1">
					<dim>1</dim>
					<dim>128</dim>
					<dim>48</dim>
					<dim>48</dim>
				</port>
			</output>
		</layer>
		<layer id="65" name="Multiply_148080_compressed" type="Const" version="opset1">
			<data element_type="f16" shape="128, 64, 1, 1" offset="757270" size="16384" />
			<output>
				<port id="0" precision="FP16">
					<dim>128</dim>
					<dim>64</dim>
					<dim>1</dim>
					<dim>1</dim>
				</port>
			</output>
		</layer>
		<layer id="66" name="Multiply_148080" type="Convert" version="opset1">
			<data destination_type="f32" />
			<rt_info>
				<attribute name="decompression" version="0" />
			</rt_info>
			<input>
				<port id="0" precision="FP16">
					<dim>128</dim>
					<dim>64</dim>
					<dim>1</dim>
					<dim>1</dim>
				</port>
			</input>
			<output>
				<port id="1" precision="FP32">
					<dim>128</dim>
					<dim>64</dim>
					<dim>1</dim>
					<dim>1</dim>
				</port>
			</output>
		</layer>
		<layer id="67" name="__module._model.backbone.layer2.0.downsample.1/aten::mul/Multiply_1" type="Convolution" version="opset1">
			<data strides="2, 2" dilations="1, 1" pads_begin="0, 0" pads_end="0, 0" auto_pad="explicit" />
			<input>
				<port id="0" precision="FP32">
					<dim>1</dim>
					<dim>64</dim>
					<dim>96</dim>
					<dim>96</dim>
				</port>
				<port id="1" precision="FP32">
					<dim>128</dim>
					<dim>64</dim>
					<dim>1</dim>
					<dim>1</dim>
				</port>
			</input>
			<output>
				<port id="2" precision="FP32" names="486">
					<dim>1</dim>
					<dim>128</dim>
					<dim>48</dim>
					<dim>48</dim>
				</port>
			</output>
		</layer>
		<layer id="68" name="__module._model.backbone.layer2.0.downsample.1/aten::add/Multiply_1_compressed" type="Const" version="opset1">
			<data element_type="f16" shape="1, 128, 1, 1" offset="773654" size="256" />
			<output>
				<port id="0" precision="FP16">
					<dim>1</dim>
					<dim>128</dim>
					<dim>1</dim>
					<dim>1</dim>
				</port>
			</output>
		</layer>
		<layer id="69" name="__module._model.backbone.layer2.0.downsample.1/aten::add/Multiply_1" type="Convert" version="opset1">
			<data destination_type="f32" />
			<rt_info>
				<attribute name="decompression" version="0" />
			</rt_info>
			<input>
				<port id="0" precision="FP16">
					<dim>1</dim>
					<dim>128</dim>
					<dim>1</dim>
					<dim>1</dim>
				</port>
			</input>
			<output>
				<port id="1" precision="FP32">
					<dim>1</dim>
					<dim>128</dim>
					<dim>1</dim>
					<dim>1</dim>
				</port>
			</output>
		</layer>
		<layer id="70" name="__module._model.backbone.layer2.0.downsample.1/aten::add/Add_1" type="Add" version="opset1">
			<data auto_broadcast="numpy" />
			<input>
				<port id="0" precision="FP32">
					<dim>1</dim>
					<dim>128</dim>
					<dim>48</dim>
					<dim>48</dim>
				</port>
				<port id="1" precision="FP32">
					<dim>1</dim>
					<dim>128</dim>
					<dim>1</dim>
					<dim>1</dim>
				</port>
			</input>
			<output>
				<port id="2" precision="FP32" names="487,identity.1">
					<dim>1</dim>
					<dim>128</dim>
					<dim>48</dim>
					<dim>48</dim>
				</port>
			</output>
		</layer>
		<layer id="71" name="__module._model.backbone.layer2.0/aten::add_/Add" type="Add" version="opset1">
			<data auto_broadcast="numpy" />
			<input>
				<port id="0" precision="FP32">
					<dim>1</dim>
					<dim>128</dim>
					<dim>48</dim>
					<dim>48</dim>
				</port>
				<port id="1" precision="FP32">
					<dim>1</dim>
					<dim>128</dim>
					<dim>48</dim>
					<dim>48</dim>
				</port>
			</input>
			<output>
				<port id="2" precision="FP32" names="460_2">
					<dim>1</dim>
					<dim>128</dim>
					<dim>48</dim>
					<dim>48</dim>
				</port>
			</output>
		</layer>
		<layer id="72" name="__module._model.backbone.layer2.0.relu/aten::relu_/Relu_1" type="ReLU" version="opset1">
			<input>
				<port id="0" precision="FP32">
					<dim>1</dim>
					<dim>128</dim>
					<dim>48</dim>
					<dim>48</dim>
				</port>
			</input>
			<output>
				<port id="1" precision="FP32" names="488,input.33">
					<dim>1</dim>
					<dim>128</dim>
					<dim>48</dim>
					<dim>48</dim>
				</port>
			</output>
		</layer>
		<layer id="73" name="Multiply_148084_compressed" type="Const" version="opset1">
			<data element_type="f16" shape="128, 128, 3, 3" offset="773910" size="294912" />
			<output>
				<port id="0" precision="FP16">
					<dim>128</dim>
					<dim>128</dim>
					<dim>3</dim>
					<dim>3</dim>
				</port>
			</output>
		</layer>
		<layer id="74" name="Multiply_148084" type="Convert" version="opset1">
			<data destination_type="f32" />
			<rt_info>
				<attribute name="decompression" version="0" />
			</rt_info>
			<input>
				<port id="0" precision="FP16">
					<dim>128</dim>
					<dim>128</dim>
					<dim>3</dim>
					<dim>3</dim>
				</port>
			</input>
			<output>
				<port id="1" precision="FP32">
					<dim>128</dim>
					<dim>128</dim>
					<dim>3</dim>
					<dim>3</dim>
				</port>
			</output>
		</layer>
		<layer id="75" name="__module._model.backbone.layer2.1.bn1/aten::mul/Multiply_1" type="Convolution" version="opset1">
			<data strides="1, 1" dilations="1, 1" pads_begin="1, 1" pads_end="1, 1" auto_pad="explicit" />
			<input>
				<port id="0" precision="FP32">
					<dim>1</dim>
					<dim>128</dim>
					<dim>48</dim>
					<dim>48</dim>
				</port>
				<port id="1" precision="FP32">
					<dim>128</dim>
					<dim>128</dim>
					<dim>3</dim>
					<dim>3</dim>
				</port>
			</input>
			<output>
				<port id="2" precision="FP32" names="517">
					<dim>1</dim>
					<dim>128</dim>
					<dim>48</dim>
					<dim>48</dim>
				</port>
			</output>
		</layer>
		<layer id="76" name="__module._model.backbone.layer2.1.bn1/aten::add/Multiply_1_compressed" type="Const" version="opset1">
			<data element_type="f16" shape="1, 128, 1, 1" offset="1068822" size="256" />
			<output>
				<port id="0" precision="FP16">
					<dim>1</dim>
					<dim>128</dim>
					<dim>1</dim>
					<dim>1</dim>
				</port>
			</output>
		</layer>
		<layer id="77" name="__module._model.backbone.layer2.1.bn1/aten::add/Multiply_1" type="Convert" version="opset1">
			<data destination_type="f32" />
			<rt_info>
				<attribute name="decompression" version="0" />
			</rt_info>
			<input>
				<port id="0" precision="FP16">
					<dim>1</dim>
					<dim>128</dim>
					<dim>1</dim>
					<dim>1</dim>
				</port>
			</input>
			<output>
				<port id="1" precision="FP32">
					<dim>1</dim>
					<dim>128</dim>
					<dim>1</dim>
					<dim>1</dim>
				</port>
			</output>
		</layer>
		<layer id="78" name="__module._model.backbone.layer2.1.bn1/aten::add/Add_1" type="Add" version="opset1">
			<data auto_broadcast="numpy" />
			<input>
				<port id="0" precision="FP32">
					<dim>1</dim>
					<dim>128</dim>
					<dim>48</dim>
					<dim>48</dim>
				</port>
				<port id="1" precision="FP32">
					<dim>1</dim>
					<dim>128</dim>
					<dim>1</dim>
					<dim>1</dim>
				</port>
			</input>
			<output>
				<port id="2" precision="FP32" names="518_1">
					<dim>1</dim>
					<dim>128</dim>
					<dim>48</dim>
					<dim>48</dim>
				</port>
			</output>
		</layer>
		<layer id="79" name="__module._model.backbone.layer2.1.relu/aten::relu_/Relu" type="ReLU" version="opset1">
			<input>
				<port id="0" precision="FP32">
					<dim>1</dim>
					<dim>128</dim>
					<dim>48</dim>
					<dim>48</dim>
				</port>
			</input>
			<output>
				<port id="1" precision="FP32" names="518,input.37">
					<dim>1</dim>
					<dim>128</dim>
					<dim>48</dim>
					<dim>48</dim>
				</port>
			</output>
		</layer>
		<layer id="80" name="Multiply_148088_compressed" type="Const" version="opset1">
			<data element_type="f16" shape="128, 128, 3, 3" offset="1069078" size="294912" />
			<output>
				<port id="0" precision="FP16">
					<dim>128</dim>
					<dim>128</dim>
					<dim>3</dim>
					<dim>3</dim>
				</port>
			</output>
		</layer>
		<layer id="81" name="Multiply_148088" type="Convert" version="opset1">
			<data destination_type="f32" />
			<rt_info>
				<attribute name="decompression" version="0" />
			</rt_info>
			<input>
				<port id="0" precision="FP16">
					<dim>128</dim>
					<dim>128</dim>
					<dim>3</dim>
					<dim>3</dim>
				</port>
			</input>
			<output>
				<port id="1" precision="FP32">
					<dim>128</dim>
					<dim>128</dim>
					<dim>3</dim>
					<dim>3</dim>
				</port>
			</output>
		</layer>
		<layer id="82" name="__module._model.backbone.layer2.1.bn2/aten::mul/Multiply_1" type="Convolution" version="opset1">
			<data strides="1, 1" dilations="1, 1" pads_begin="1, 1" pads_end="1, 1" auto_pad="explicit" />
			<input>
				<port id="0" precision="FP32">
					<dim>1</dim>
					<dim>128</dim>
					<dim>48</dim>
					<dim>48</dim>
				</port>
				<port id="1" precision="FP32">
					<dim>128</dim>
					<dim>128</dim>
					<dim>3</dim>
					<dim>3</dim>
				</port>
			</input>
			<output>
				<port id="2" precision="FP32" names="543">
					<dim>1</dim>
					<dim>128</dim>
					<dim>48</dim>
					<dim>48</dim>
				</port>
			</output>
		</layer>
		<layer id="83" name="__module._model.backbone.layer2.1.bn2/aten::add/Multiply_1_compressed" type="Const" version="opset1">
			<data element_type="f16" shape="1, 128, 1, 1" offset="1363990" size="256" />
			<output>
				<port id="0" precision="FP16">
					<dim>1</dim>
					<dim>128</dim>
					<dim>1</dim>
					<dim>1</dim>
				</port>
			</output>
		</layer>
		<layer id="84" name="__module._model.backbone.layer2.1.bn2/aten::add/Multiply_1" type="Convert" version="opset1">
			<data destination_type="f32" />
			<rt_info>
				<attribute name="decompression" version="0" />
			</rt_info>
			<input>
				<port id="0" precision="FP16">
					<dim>1</dim>
					<dim>128</dim>
					<dim>1</dim>
					<dim>1</dim>
				</port>
			</input>
			<output>
				<port id="1" precision="FP32">
					<dim>1</dim>
					<dim>128</dim>
					<dim>1</dim>
					<dim>1</dim>
				</port>
			</output>
		</layer>
		<layer id="85" name="__module._model.backbone.layer2.1.bn2/aten::add/Add_1" type="Add" version="opset1">
			<data auto_broadcast="numpy" />
			<input>
				<port id="0" precision="FP32">
					<dim>1</dim>
					<dim>128</dim>
					<dim>48</dim>
					<dim>48</dim>
				</port>
				<port id="1" precision="FP32">
					<dim>1</dim>
					<dim>128</dim>
					<dim>1</dim>
					<dim>1</dim>
				</port>
			</input>
			<output>
				<port id="2" precision="FP32" names="544_1">
					<dim>1</dim>
					<dim>128</dim>
					<dim>48</dim>
					<dim>48</dim>
				</port>
			</output>
		</layer>
		<layer id="86" name="__module._model.backbone.layer2.1/aten::add_/Add" type="Add" version="opset1">
			<data auto_broadcast="numpy" />
			<input>
				<port id="0" precision="FP32">
					<dim>1</dim>
					<dim>128</dim>
					<dim>48</dim>
					<dim>48</dim>
				</port>
				<port id="1" precision="FP32">
					<dim>1</dim>
					<dim>128</dim>
					<dim>48</dim>
					<dim>48</dim>
				</port>
			</input>
			<output>
				<port id="2" precision="FP32" names="544_2">
					<dim>1</dim>
					<dim>128</dim>
					<dim>48</dim>
					<dim>48</dim>
				</port>
			</output>
		</layer>
		<layer id="87" name="__module._model.backbone.layer2.1.relu/aten::relu_/Relu_1" type="ReLU" version="opset1">
			<input>
				<port id="0" precision="FP32">
					<dim>1</dim>
					<dim>128</dim>
					<dim>48</dim>
					<dim>48</dim>
				</port>
			</input>
			<output>
				<port id="1" precision="FP32" names="545,input.41">
					<dim>1</dim>
					<dim>128</dim>
					<dim>48</dim>
					<dim>48</dim>
				</port>
			</output>
		</layer>
		<layer id="88" name="Multiply_148092_compressed" type="Const" version="opset1">
			<data element_type="f16" shape="256, 128, 3, 3" offset="1364246" size="589824" />
			<output>
				<port id="0" precision="FP16">
					<dim>256</dim>
					<dim>128</dim>
					<dim>3</dim>
					<dim>3</dim>
				</port>
			</output>
		</layer>
		<layer id="89" name="Multiply_148092" type="Convert" version="opset1">
			<data destination_type="f32" />
			<rt_info>
				<attribute name="decompression" version="0" />
			</rt_info>
			<input>
				<port id="0" precision="FP16">
					<dim>256</dim>
					<dim>128</dim>
					<dim>3</dim>
					<dim>3</dim>
				</port>
			</input>
			<output>
				<port id="1" precision="FP32">
					<dim>256</dim>
					<dim>128</dim>
					<dim>3</dim>
					<dim>3</dim>
				</port>
			</output>
		</layer>
		<layer id="90" name="__module._model.backbone.layer3.0.bn1/aten::mul/Multiply_1" type="Convolution" version="opset1">
			<data strides="2, 2" dilations="1, 1" pads_begin="1, 1" pads_end="1, 1" auto_pad="explicit" />
			<input>
				<port id="0" precision="FP32">
					<dim>1</dim>
					<dim>128</dim>
					<dim>48</dim>
					<dim>48</dim>
				</port>
				<port id="1" precision="FP32">
					<dim>256</dim>
					<dim>128</dim>
					<dim>3</dim>
					<dim>3</dim>
				</port>
			</input>
			<output>
				<port id="2" precision="FP32" names="577">
					<dim>1</dim>
					<dim>256</dim>
					<dim>24</dim>
					<dim>24</dim>
				</port>
			</output>
		</layer>
		<layer id="91" name="__module._model.backbone.layer3.0.bn1/aten::add/Multiply_1_compressed" type="Const" version="opset1">
			<data element_type="f16" shape="1, 256, 1, 1" offset="1954070" size="512" />
			<output>
				<port id="0" precision="FP16">
					<dim>1</dim>
					<dim>256</dim>
					<dim>1</dim>
					<dim>1</dim>
				</port>
			</output>
		</layer>
		<layer id="92" name="__module._model.backbone.layer3.0.bn1/aten::add/Multiply_1" type="Convert" version="opset1">
			<data destination_type="f32" />
			<rt_info>
				<attribute name="decompression" version="0" />
			</rt_info>
			<input>
				<port id="0" precision="FP16">
					<dim>1</dim>
					<dim>256</dim>
					<dim>1</dim>
					<dim>1</dim>
				</port>
			</input>
			<output>
				<port id="1" precision="FP32">
					<dim>1</dim>
					<dim>256</dim>
					<dim>1</dim>
					<dim>1</dim>
				</port>
			</output>
		</layer>
		<layer id="93" name="__module._model.backbone.layer3.0.bn1/aten::add/Add_1" type="Add" version="opset1">
			<data auto_broadcast="numpy" />
			<input>
				<port id="0" precision="FP32">
					<dim>1</dim>
					<dim>256</dim>
					<dim>24</dim>
					<dim>24</dim>
				</port>
				<port id="1" precision="FP32">
					<dim>1</dim>
					<dim>256</dim>
					<dim>1</dim>
					<dim>1</dim>
				</port>
			</input>
			<output>
				<port id="2" precision="FP32" names="578_1">
					<dim>1</dim>
					<dim>256</dim>
					<dim>24</dim>
					<dim>24</dim>
				</port>
			</output>
		</layer>
		<layer id="94" name="__module._model.backbone.layer3.0.relu/aten::relu_/Relu" type="ReLU" version="opset1">
			<input>
				<port id="0" precision="FP32">
					<dim>1</dim>
					<dim>256</dim>
					<dim>24</dim>
					<dim>24</dim>
				</port>
			</input>
			<output>
				<port id="1" precision="FP32" names="578,input.45">
					<dim>1</dim>
					<dim>256</dim>
					<dim>24</dim>
					<dim>24</dim>
				</port>
			</output>
		</layer>
		<layer id="95" name="Multiply_148096_compressed" type="Const" version="opset1">
			<data element_type="f16" shape="256, 256, 3, 3" offset="1954582" size="1179648" />
			<output>
				<port id="0" precision="FP16">
					<dim>256</dim>
					<dim>256</dim>
					<dim>3</dim>
					<dim>3</dim>
				</port>
			</output>
		</layer>
		<layer id="96" name="Multiply_148096" type="Convert" version="opset1">
			<data destination_type="f32" />
			<rt_info>
				<attribute name="decompression" version="0" />
			</rt_info>
			<input>
				<port id="0" precision="FP16">
					<dim>256</dim>
					<dim>256</dim>
					<dim>3</dim>
					<dim>3</dim>
				</port>
			</input>
			<output>
				<port id="1" precision="FP32">
					<dim>256</dim>
					<dim>256</dim>
					<dim>3</dim>
					<dim>3</dim>
				</port>
			</output>
		</layer>
		<layer id="97" name="__module._model.backbone.layer3.0.bn2/aten::mul/Multiply_1" type="Convolution" version="opset1">
			<data strides="1, 1" dilations="1, 1" pads_begin="1, 1" pads_end="1, 1" auto_pad="explicit" />
			<input>
				<port id="0" precision="FP32">
					<dim>1</dim>
					<dim>256</dim>
					<dim>24</dim>
					<dim>24</dim>
				</port>
				<port id="1" precision="FP32">
					<dim>256</dim>
					<dim>256</dim>
					<dim>3</dim>
					<dim>3</dim>
				</port>
			</input>
			<output>
				<port id="2" precision="FP32" names="603">
					<dim>1</dim>
					<dim>256</dim>
					<dim>24</dim>
					<dim>24</dim>
				</port>
			</output>
		</layer>
		<layer id="98" name="__module._model.backbone.layer3.0.bn2/aten::add/Multiply_1_compressed" type="Const" version="opset1">
			<data element_type="f16" shape="1, 256, 1, 1" offset="3134230" size="512" />
			<output>
				<port id="0" precision="FP16">
					<dim>1</dim>
					<dim>256</dim>
					<dim>1</dim>
					<dim>1</dim>
				</port>
			</output>
		</layer>
		<layer id="99" name="__module._model.backbone.layer3.0.bn2/aten::add/Multiply_1" type="Convert" version="opset1">
			<data destination_type="f32" />
			<rt_info>
				<attribute name="decompression" version="0" />
			</rt_info>
			<input>
				<port id="0" precision="FP16">
					<dim>1</dim>
					<dim>256</dim>
					<dim>1</dim>
					<dim>1</dim>
				</port>
			</input>
			<output>
				<port id="1" precision="FP32">
					<dim>1</dim>
					<dim>256</dim>
					<dim>1</dim>
					<dim>1</dim>
				</port>
			</output>
		</layer>
		<layer id="100" name="__module._model.backbone.layer3.0.bn2/aten::add/Add_1" type="Add" version="opset1">
			<data auto_broadcast="numpy" />
			<input>
				<port id="0" precision="FP32">
					<dim>1</dim>
					<dim>256</dim>
					<dim>24</dim>
					<dim>24</dim>
				</port>
				<port id="1" precision="FP32">
					<dim>1</dim>
					<dim>256</dim>
					<dim>1</dim>
					<dim>1</dim>
				</port>
			</input>
			<output>
				<port id="2" precision="FP32" names="604_1">
					<dim>1</dim>
					<dim>256</dim>
					<dim>24</dim>
					<dim>24</dim>
				</port>
			</output>
		</layer>
		<layer id="101" name="Multiply_148100_compressed" type="Const" version="opset1">
			<data element_type="f16" shape="256, 128, 1, 1" offset="3134742" size="65536" />
			<output>
				<port id="0" precision="FP16">
					<dim>256</dim>
					<dim>128</dim>
					<dim>1</dim>
					<dim>1</dim>
				</port>
			</output>
		</layer>
		<layer id="102" name="Multiply_148100" type="Convert" version="opset1">
			<data destination_type="f32" />
			<rt_info>
				<attribute name="decompression" version="0" />
			</rt_info>
			<input>
				<port id="0" precision="FP16">
					<dim>256</dim>
					<dim>128</dim>
					<dim>1</dim>
					<dim>1</dim>
				</port>
			</input>
			<output>
				<port id="1" precision="FP32">
					<dim>256</dim>
					<dim>128</dim>
					<dim>1</dim>
					<dim>1</dim>
				</port>
			</output>
		</layer>
		<layer id="103" name="__module._model.backbone.layer3.0.downsample.1/aten::mul/Multiply_1" type="Convolution" version="opset1">
			<data strides="2, 2" dilations="1, 1" pads_begin="0, 0" pads_end="0, 0" auto_pad="explicit" />
			<input>
				<port id="0" precision="FP32">
					<dim>1</dim>
					<dim>128</dim>
					<dim>48</dim>
					<dim>48</dim>
				</port>
				<port id="1" precision="FP32">
					<dim>256</dim>
					<dim>128</dim>
					<dim>1</dim>
					<dim>1</dim>
				</port>
			</input>
			<output>
				<port id="2" precision="FP32" names="630">
					<dim>1</dim>
					<dim>256</dim>
					<dim>24</dim>
					<dim>24</dim>
				</port>
			</output>
		</layer>
		<layer id="104" name="__module._model.backbone.layer3.0.downsample.1/aten::add/Multiply_1_compressed" type="Const" version="opset1">
			<data element_type="f16" shape="1, 256, 1, 1" offset="3200278" size="512" />
			<output>
				<port id="0" precision="FP16">
					<dim>1</dim>
					<dim>256</dim>
					<dim>1</dim>
					<dim>1</dim>
				</port>
			</output>
		</layer>
		<layer id="105" name="__module._model.backbone.layer3.0.downsample.1/aten::add/Multiply_1" type="Convert" version="opset1">
			<data destination_type="f32" />
			<rt_info>
				<attribute name="decompression" version="0" />
			</rt_info>
			<input>
				<port id="0" precision="FP16">
					<dim>1</dim>
					<dim>256</dim>
					<dim>1</dim>
					<dim>1</dim>
				</port>
			</input>
			<output>
				<port id="1" precision="FP32">
					<dim>1</dim>
					<dim>256</dim>
					<dim>1</dim>
					<dim>1</dim>
				</port>
			</output>
		</layer>
		<layer id="106" name="__module._model.backbone.layer3.0.downsample.1/aten::add/Add_1" type="Add" version="opset1">
			<data auto_broadcast="numpy" />
			<input>
				<port id="0" precision="FP32">
					<dim>1</dim>
					<dim>256</dim>
					<dim>24</dim>
					<dim>24</dim>
				</port>
				<port id="1" precision="FP32">
					<dim>1</dim>
					<dim>256</dim>
					<dim>1</dim>
					<dim>1</dim>
				</port>
			</input>
			<output>
				<port id="2" precision="FP32" names="631,identity.3">
					<dim>1</dim>
					<dim>256</dim>
					<dim>24</dim>
					<dim>24</dim>
				</port>
			</output>
		</layer>
		<layer id="107" name="__module._model.backbone.layer3.0/aten::add_/Add" type="Add" version="opset1">
			<data auto_broadcast="numpy" />
			<input>
				<port id="0" precision="FP32">
					<dim>1</dim>
					<dim>256</dim>
					<dim>24</dim>
					<dim>24</dim>
				</port>
				<port id="1" precision="FP32">
					<dim>1</dim>
					<dim>256</dim>
					<dim>24</dim>
					<dim>24</dim>
				</port>
			</input>
			<output>
				<port id="2" precision="FP32" names="604_2">
					<dim>1</dim>
					<dim>256</dim>
					<dim>24</dim>
					<dim>24</dim>
				</port>
			</output>
		</layer>
		<layer id="108" name="__module._model.backbone.layer3.0.relu/aten::relu_/Relu_1" type="ReLU" version="opset1">
			<input>
				<port id="0" precision="FP32">
					<dim>1</dim>
					<dim>256</dim>
					<dim>24</dim>
					<dim>24</dim>
				</port>
			</input>
			<output>
				<port id="1" precision="FP32" names="632,input.49">
					<dim>1</dim>
					<dim>256</dim>
					<dim>24</dim>
					<dim>24</dim>
				</port>
			</output>
		</layer>
		<layer id="109" name="Multiply_148104_compressed" type="Const" version="opset1">
			<data element_type="f16" shape="256, 256, 3, 3" offset="3200790" size="1179648" />
			<output>
				<port id="0" precision="FP16">
					<dim>256</dim>
					<dim>256</dim>
					<dim>3</dim>
					<dim>3</dim>
				</port>
			</output>
		</layer>
		<layer id="110" name="Multiply_148104" type="Convert" version="opset1">
			<data destination_type="f32" />
			<rt_info>
				<attribute name="decompression" version="0" />
			</rt_info>
			<input>
				<port id="0" precision="FP16">
					<dim>256</dim>
					<dim>256</dim>
					<dim>3</dim>
					<dim>3</dim>
				</port>
			</input>
			<output>
				<port id="1" precision="FP32">
					<dim>256</dim>
					<dim>256</dim>
					<dim>3</dim>
					<dim>3</dim>
				</port>
			</output>
		</layer>
		<layer id="111" name="__module._model.backbone.layer3.1.bn1/aten::mul/Multiply_1" type="Convolution" version="opset1">
			<data strides="1, 1" dilations="1, 1" pads_begin="1, 1" pads_end="1, 1" auto_pad="explicit" />
			<input>
				<port id="0" precision="FP32">
					<dim>1</dim>
					<dim>256</dim>
					<dim>24</dim>
					<dim>24</dim>
				</port>
				<port id="1" precision="FP32">
					<dim>256</dim>
					<dim>256</dim>
					<dim>3</dim>
					<dim>3</dim>
				</port>
			</input>
			<output>
				<port id="2" precision="FP32" names="661">
					<dim>1</dim>
					<dim>256</dim>
					<dim>24</dim>
					<dim>24</dim>
				</port>
			</output>
		</layer>
		<layer id="112" name="__module._model.backbone.layer3.1.bn1/aten::add/Multiply_1_compressed" type="Const" version="opset1">
			<data element_type="f16" shape="1, 256, 1, 1" offset="4380438" size="512" />
			<output>
				<port id="0" precision="FP16">
					<dim>1</dim>
					<dim>256</dim>
					<dim>1</dim>
					<dim>1</dim>
				</port>
			</output>
		</layer>
		<layer id="113" name="__module._model.backbone.layer3.1.bn1/aten::add/Multiply_1" type="Convert" version="opset1">
			<data destination_type="f32" />
			<rt_info>
				<attribute name="decompression" version="0" />
			</rt_info>
			<input>
				<port id="0" precision="FP16">
					<dim>1</dim>
					<dim>256</dim>
					<dim>1</dim>
					<dim>1</dim>
				</port>
			</input>
			<output>
				<port id="1" precision="FP32">
					<dim>1</dim>
					<dim>256</dim>
					<dim>1</dim>
					<dim>1</dim>
				</port>
			</output>
		</layer>
		<layer id="114" name="__module._model.backbone.layer3.1.bn1/aten::add/Add_1" type="Add" version="opset1">
			<data auto_broadcast="numpy" />
			<input>
				<port id="0" precision="FP32">
					<dim>1</dim>
					<dim>256</dim>
					<dim>24</dim>
					<dim>24</dim>
				</port>
				<port id="1" precision="FP32">
					<dim>1</dim>
					<dim>256</dim>
					<dim>1</dim>
					<dim>1</dim>
				</port>
			</input>
			<output>
				<port id="2" precision="FP32" names="662_1">
					<dim>1</dim>
					<dim>256</dim>
					<dim>24</dim>
					<dim>24</dim>
				</port>
			</output>
		</layer>
		<layer id="115" name="__module._model.backbone.layer3.1.relu/aten::relu_/Relu" type="ReLU" version="opset1">
			<input>
				<port id="0" precision="FP32">
					<dim>1</dim>
					<dim>256</dim>
					<dim>24</dim>
					<dim>24</dim>
				</port>
			</input>
			<output>
				<port id="1" precision="FP32" names="662,input.53">
					<dim>1</dim>
					<dim>256</dim>
					<dim>24</dim>
					<dim>24</dim>
				</port>
			</output>
		</layer>
		<layer id="116" name="Multiply_148108_compressed" type="Const" version="opset1">
			<data element_type="f16" shape="256, 256, 3, 3" offset="4380950" size="1179648" />
			<output>
				<port id="0" precision="FP16">
					<dim>256</dim>
					<dim>256</dim>
					<dim>3</dim>
					<dim>3</dim>
				</port>
			</output>
		</layer>
		<layer id="117" name="Multiply_148108" type="Convert" version="opset1">
			<data destination_type="f32" />
			<rt_info>
				<attribute name="decompression" version="0" />
			</rt_info>
			<input>
				<port id="0" precision="FP16">
					<dim>256</dim>
					<dim>256</dim>
					<dim>3</dim>
					<dim>3</dim>
				</port>
			</input>
			<output>
				<port id="1" precision="FP32">
					<dim>256</dim>
					<dim>256</dim>
					<dim>3</dim>
					<dim>3</dim>
				</port>
			</output>
		</layer>
		<layer id="118" name="__module._model.backbone.layer3.1.bn2/aten::mul/Multiply_1" type="Convolution" version="opset1">
			<data strides="1, 1" dilations="1, 1" pads_begin="1, 1" pads_end="1, 1" auto_pad="explicit" />
			<input>
				<port id="0" precision="FP32">
					<dim>1</dim>
					<dim>256</dim>
					<dim>24</dim>
					<dim>24</dim>
				</port>
				<port id="1" precision="FP32">
					<dim>256</dim>
					<dim>256</dim>
					<dim>3</dim>
					<dim>3</dim>
				</port>
			</input>
			<output>
				<port id="2" precision="FP32" names="687">
					<dim>1</dim>
					<dim>256</dim>
					<dim>24</dim>
					<dim>24</dim>
				</port>
			</output>
		</layer>
		<layer id="119" name="__module._model.backbone.layer3.1.bn2/aten::add/Multiply_1_compressed" type="Const" version="opset1">
			<data element_type="f16" shape="1, 256, 1, 1" offset="5560598" size="512" />
			<output>
				<port id="0" precision="FP16">
					<dim>1</dim>
					<dim>256</dim>
					<dim>1</dim>
					<dim>1</dim>
				</port>
			</output>
		</layer>
		<layer id="120" name="__module._model.backbone.layer3.1.bn2/aten::add/Multiply_1" type="Convert" version="opset1">
			<data destination_type="f32" />
			<rt_info>
				<attribute name="decompression" version="0" />
			</rt_info>
			<input>
				<port id="0" precision="FP16">
					<dim>1</dim>
					<dim>256</dim>
					<dim>1</dim>
					<dim>1</dim>
				</port>
			</input>
			<output>
				<port id="1" precision="FP32">
					<dim>1</dim>
					<dim>256</dim>
					<dim>1</dim>
					<dim>1</dim>
				</port>
			</output>
		</layer>
		<layer id="121" name="__module._model.backbone.layer3.1.bn2/aten::add/Add_1" type="Add" version="opset1">
			<data auto_broadcast="numpy" />
			<input>
				<port id="0" precision="FP32">
					<dim>1</dim>
					<dim>256</dim>
					<dim>24</dim>
					<dim>24</dim>
				</port>
				<port id="1" precision="FP32">
					<dim>1</dim>
					<dim>256</dim>
					<dim>1</dim>
					<dim>1</dim>
				</port>
			</input>
			<output>
				<port id="2" precision="FP32" names="688_1">
					<dim>1</dim>
					<dim>256</dim>
					<dim>24</dim>
					<dim>24</dim>
				</port>
			</output>
		</layer>
		<layer id="122" name="__module._model.backbone.layer3.1/aten::add_/Add" type="Add" version="opset1">
			<data auto_broadcast="numpy" />
			<input>
				<port id="0" precision="FP32">
					<dim>1</dim>
					<dim>256</dim>
					<dim>24</dim>
					<dim>24</dim>
				</port>
				<port id="1" precision="FP32">
					<dim>1</dim>
					<dim>256</dim>
					<dim>24</dim>
					<dim>24</dim>
				</port>
			</input>
			<output>
				<port id="2" precision="FP32" names="688_2">
					<dim>1</dim>
					<dim>256</dim>
					<dim>24</dim>
					<dim>24</dim>
				</port>
			</output>
		</layer>
		<layer id="123" name="__module._model.backbone.layer3.1.relu/aten::relu_/Relu_1" type="ReLU" version="opset1">
			<input>
				<port id="0" precision="FP32">
					<dim>1</dim>
					<dim>256</dim>
					<dim>24</dim>
					<dim>24</dim>
				</port>
			</input>
			<output>
				<port id="1" precision="FP32" names="689,input.57">
					<dim>1</dim>
					<dim>256</dim>
					<dim>24</dim>
					<dim>24</dim>
				</port>
			</output>
		</layer>
		<layer id="124" name="Multiply_148112_compressed" type="Const" version="opset1">
			<data element_type="f16" shape="512, 256, 3, 3" offset="5561110" size="2359296" />
			<output>
				<port id="0" precision="FP16">
					<dim>512</dim>
					<dim>256</dim>
					<dim>3</dim>
					<dim>3</dim>
				</port>
			</output>
		</layer>
		<layer id="125" name="Multiply_148112" type="Convert" version="opset1">
			<data destination_type="f32" />
			<rt_info>
				<attribute name="decompression" version="0" />
			</rt_info>
			<input>
				<port id="0" precision="FP16">
					<dim>512</dim>
					<dim>256</dim>
					<dim>3</dim>
					<dim>3</dim>
				</port>
			</input>
			<output>
				<port id="1" precision="FP32">
					<dim>512</dim>
					<dim>256</dim>
					<dim>3</dim>
					<dim>3</dim>
				</port>
			</output>
		</layer>
		<layer id="126" name="__module._model.backbone.layer4.0.bn1/aten::mul/Multiply_1" type="Convolution" version="opset1">
			<data strides="2, 2" dilations="1, 1" pads_begin="1, 1" pads_end="1, 1" auto_pad="explicit" />
			<input>
				<port id="0" precision="FP32">
					<dim>1</dim>
					<dim>256</dim>
					<dim>24</dim>
					<dim>24</dim>
				</port>
				<port id="1" precision="FP32">
					<dim>512</dim>
					<dim>256</dim>
					<dim>3</dim>
					<dim>3</dim>
				</port>
			</input>
			<output>
				<port id="2" precision="FP32" names="721">
					<dim>1</dim>
					<dim>512</dim>
					<dim>12</dim>
					<dim>12</dim>
				</port>
			</output>
		</layer>
		<layer id="127" name="__module._model.backbone.layer4.0.bn1/aten::add/Multiply_1_compressed" type="Const" version="opset1">
			<data element_type="f16" shape="1, 512, 1, 1" offset="7920406" size="1024" />
			<output>
				<port id="0" precision="FP16">
					<dim>1</dim>
					<dim>512</dim>
					<dim>1</dim>
					<dim>1</dim>
				</port>
			</output>
		</layer>
		<layer id="128" name="__module._model.backbone.layer4.0.bn1/aten::add/Multiply_1" type="Convert" version="opset1">
			<data destination_type="f32" />
			<rt_info>
				<attribute name="decompression" version="0" />
			</rt_info>
			<input>
				<port id="0" precision="FP16">
					<dim>1</dim>
					<dim>512</dim>
					<dim>1</dim>
					<dim>1</dim>
				</port>
			</input>
			<output>
				<port id="1" precision="FP32">
					<dim>1</dim>
					<dim>512</dim>
					<dim>1</dim>
					<dim>1</dim>
				</port>
			</output>
		</layer>
		<layer id="129" name="__module._model.backbone.layer4.0.bn1/aten::add/Add_1" type="Add" version="opset1">
			<data auto_broadcast="numpy" />
			<input>
				<port id="0" precision="FP32">
					<dim>1</dim>
					<dim>512</dim>
					<dim>12</dim>
					<dim>12</dim>
				</port>
				<port id="1" precision="FP32">
					<dim>1</dim>
					<dim>512</dim>
					<dim>1</dim>
					<dim>1</dim>
				</port>
			</input>
			<output>
				<port id="2" precision="FP32" names="722_1">
					<dim>1</dim>
					<dim>512</dim>
					<dim>12</dim>
					<dim>12</dim>
				</port>
			</output>
		</layer>
		<layer id="130" name="__module._model.backbone.layer4.0.relu/aten::relu_/Relu" type="ReLU" version="opset1">
			<input>
				<port id="0" precision="FP32">
					<dim>1</dim>
					<dim>512</dim>
					<dim>12</dim>
					<dim>12</dim>
				</port>
			</input>
			<output>
				<port id="1" precision="FP32" names="722,input.61">
					<dim>1</dim>
					<dim>512</dim>
					<dim>12</dim>
					<dim>12</dim>
				</port>
			</output>
		</layer>
		<layer id="131" name="Multiply_148116_compressed" type="Const" version="opset1">
			<data element_type="f16" shape="512, 512, 3, 3" offset="7921430" size="4718592" />
			<output>
				<port id="0" precision="FP16">
					<dim>512</dim>
					<dim>512</dim>
					<dim>3</dim>
					<dim>3</dim>
				</port>
			</output>
		</layer>
		<layer id="132" name="Multiply_148116" type="Convert" version="opset1">
			<data destination_type="f32" />
			<rt_info>
				<attribute name="decompression" version="0" />
			</rt_info>
			<input>
				<port id="0" precision="FP16">
					<dim>512</dim>
					<dim>512</dim>
					<dim>3</dim>
					<dim>3</dim>
				</port>
			</input>
			<output>
				<port id="1" precision="FP32">
					<dim>512</dim>
					<dim>512</dim>
					<dim>3</dim>
					<dim>3</dim>
				</port>
			</output>
		</layer>
		<layer id="133" name="__module._model.backbone.layer4.0.bn2/aten::mul/Multiply_1" type="Convolution" version="opset1">
			<data strides="1, 1" dilations="1, 1" pads_begin="1, 1" pads_end="1, 1" auto_pad="explicit" />
			<input>
				<port id="0" precision="FP32">
					<dim>1</dim>
					<dim>512</dim>
					<dim>12</dim>
					<dim>12</dim>
				</port>
				<port id="1" precision="FP32">
					<dim>512</dim>
					<dim>512</dim>
					<dim>3</dim>
					<dim>3</dim>
				</port>
			</input>
			<output>
				<port id="2" precision="FP32" names="747">
					<dim>1</dim>
					<dim>512</dim>
					<dim>12</dim>
					<dim>12</dim>
				</port>
			</output>
		</layer>
		<layer id="134" name="__module._model.backbone.layer4.0.bn2/aten::add/Multiply_1_compressed" type="Const" version="opset1">
			<data element_type="f16" shape="1, 512, 1, 1" offset="12640022" size="1024" />
			<output>
				<port id="0" precision="FP16">
					<dim>1</dim>
					<dim>512</dim>
					<dim>1</dim>
					<dim>1</dim>
				</port>
			</output>
		</layer>
		<layer id="135" name="__module._model.backbone.layer4.0.bn2/aten::add/Multiply_1" type="Convert" version="opset1">
			<data destination_type="f32" />
			<rt_info>
				<attribute name="decompression" version="0" />
			</rt_info>
			<input>
				<port id="0" precision="FP16">
					<dim>1</dim>
					<dim>512</dim>
					<dim>1</dim>
					<dim>1</dim>
				</port>
			</input>
			<output>
				<port id="1" precision="FP32">
					<dim>1</dim>
					<dim>512</dim>
					<dim>1</dim>
					<dim>1</dim>
				</port>
			</output>
		</layer>
		<layer id="136" name="__module._model.backbone.layer4.0.bn2/aten::add/Add_1" type="Add" version="opset1">
			<data auto_broadcast="numpy" />
			<input>
				<port id="0" precision="FP32">
					<dim>1</dim>
					<dim>512</dim>
					<dim>12</dim>
					<dim>12</dim>
				</port>
				<port id="1" precision="FP32">
					<dim>1</dim>
					<dim>512</dim>
					<dim>1</dim>
					<dim>1</dim>
				</port>
			</input>
			<output>
				<port id="2" precision="FP32" names="748_1">
					<dim>1</dim>
					<dim>512</dim>
					<dim>12</dim>
					<dim>12</dim>
				</port>
			</output>
		</layer>
		<layer id="137" name="Multiply_148120_compressed" type="Const" version="opset1">
			<data element_type="f16" shape="512, 256, 1, 1" offset="12641046" size="262144" />
			<output>
				<port id="0" precision="FP16">
					<dim>512</dim>
					<dim>256</dim>
					<dim>1</dim>
					<dim>1</dim>
				</port>
			</output>
		</layer>
		<layer id="138" name="Multiply_148120" type="Convert" version="opset1">
			<data destination_type="f32" />
			<rt_info>
				<attribute name="decompression" version="0" />
			</rt_info>
			<input>
				<port id="0" precision="FP16">
					<dim>512</dim>
					<dim>256</dim>
					<dim>1</dim>
					<dim>1</dim>
				</port>
			</input>
			<output>
				<port id="1" precision="FP32">
					<dim>512</dim>
					<dim>256</dim>
					<dim>1</dim>
					<dim>1</dim>
				</port>
			</output>
		</layer>
		<layer id="139" name="__module._model.backbone.layer4.0.downsample.1/aten::mul/Multiply_1" type="Convolution" version="opset1">
			<data strides="2, 2" dilations="1, 1" pads_begin="0, 0" pads_end="0, 0" auto_pad="explicit" />
			<input>
				<port id="0" precision="FP32">
					<dim>1</dim>
					<dim>256</dim>
					<dim>24</dim>
					<dim>24</dim>
				</port>
				<port id="1" precision="FP32">
					<dim>512</dim>
					<dim>256</dim>
					<dim>1</dim>
					<dim>1</dim>
				</port>
			</input>
			<output>
				<port id="2" precision="FP32" names="774">
					<dim>1</dim>
					<dim>512</dim>
					<dim>12</dim>
					<dim>12</dim>
				</port>
			</output>
		</layer>
		<layer id="140" name="__module._model.backbone.layer4.0.downsample.1/aten::add/Multiply_1_compressed" type="Const" version="opset1">
			<data element_type="f16" shape="1, 512, 1, 1" offset="12903190" size="1024" />
			<output>
				<port id="0" precision="FP16">
					<dim>1</dim>
					<dim>512</dim>
					<dim>1</dim>
					<dim>1</dim>
				</port>
			</output>
		</layer>
		<layer id="141" name="__module._model.backbone.layer4.0.downsample.1/aten::add/Multiply_1" type="Convert" version="opset1">
			<data destination_type="f32" />
			<rt_info>
				<attribute name="decompression" version="0" />
			</rt_info>
			<input>
				<port id="0" precision="FP16">
					<dim>1</dim>
					<dim>512</dim>
					<dim>1</dim>
					<dim>1</dim>
				</port>
			</input>
			<output>
				<port id="1" precision="FP32">
					<dim>1</dim>
					<dim>512</dim>
					<dim>1</dim>
					<dim>1</dim>
				</port>
			</output>
		</layer>
		<layer id="142" name="__module._model.backbone.layer4.0.downsample.1/aten::add/Add_1" type="Add" version="opset1">
			<data auto_broadcast="numpy" />
			<input>
				<port id="0" precision="FP32">
					<dim>1</dim>
					<dim>512</dim>
					<dim>12</dim>
					<dim>12</dim>
				</port>
				<port id="1" precision="FP32">
					<dim>1</dim>
					<dim>512</dim>
					<dim>1</dim>
					<dim>1</dim>
				</port>
			</input>
			<output>
				<port id="2" precision="FP32" names="775,identity.5">
					<dim>1</dim>
					<dim>512</dim>
					<dim>12</dim>
					<dim>12</dim>
				</port>
			</output>
		</layer>
		<layer id="143" name="__module._model.backbone.layer4.0/aten::add_/Add" type="Add" version="opset1">
			<data auto_broadcast="numpy" />
			<input>
				<port id="0" precision="FP32">
					<dim>1</dim>
					<dim>512</dim>
					<dim>12</dim>
					<dim>12</dim>
				</port>
				<port id="1" precision="FP32">
					<dim>1</dim>
					<dim>512</dim>
					<dim>12</dim>
					<dim>12</dim>
				</port>
			</input>
			<output>
				<port id="2" precision="FP32" names="748_2">
					<dim>1</dim>
					<dim>512</dim>
					<dim>12</dim>
					<dim>12</dim>
				</port>
			</output>
		</layer>
		<layer id="144" name="__module._model.backbone.layer4.0.relu/aten::relu_/Relu_1" type="ReLU" version="opset1">
			<input>
				<port id="0" precision="FP32">
					<dim>1</dim>
					<dim>512</dim>
					<dim>12</dim>
					<dim>12</dim>
				</port>
			</input>
			<output>
				<port id="1" precision="FP32" names="776,input.65">
					<dim>1</dim>
					<dim>512</dim>
					<dim>12</dim>
					<dim>12</dim>
				</port>
			</output>
		</layer>
		<layer id="145" name="Multiply_148124_compressed" type="Const" version="opset1">
			<data element_type="f16" shape="512, 512, 3, 3" offset="12904214" size="4718592" />
			<output>
				<port id="0" precision="FP16">
					<dim>512</dim>
					<dim>512</dim>
					<dim>3</dim>
					<dim>3</dim>
				</port>
			</output>
		</layer>
		<layer id="146" name="Multiply_148124" type="Convert" version="opset1">
			<data destination_type="f32" />
			<rt_info>
				<attribute name="decompression" version="0" />
			</rt_info>
			<input>
				<port id="0" precision="FP16">
					<dim>512</dim>
					<dim>512</dim>
					<dim>3</dim>
					<dim>3</dim>
				</port>
			</input>
			<output>
				<port id="1" precision="FP32">
					<dim>512</dim>
					<dim>512</dim>
					<dim>3</dim>
					<dim>3</dim>
				</port>
			</output>
		</layer>
		<layer id="147" name="__module._model.backbone.layer4.1.bn1/aten::mul/Multiply_1" type="Convolution" version="opset1">
			<data strides="1, 1" dilations="1, 1" pads_begin="1, 1" pads_end="1, 1" auto_pad="explicit" />
			<input>
				<port id="0" precision="FP32">
					<dim>1</dim>
					<dim>512</dim>
					<dim>12</dim>
					<dim>12</dim>
				</port>
				<port id="1" precision="FP32">
					<dim>512</dim>
					<dim>512</dim>
					<dim>3</dim>
					<dim>3</dim>
				</port>
			</input>
			<output>
				<port id="2" precision="FP32" names="805">
					<dim>1</dim>
					<dim>512</dim>
					<dim>12</dim>
					<dim>12</dim>
				</port>
			</output>
		</layer>
		<layer id="148" name="__module._model.backbone.layer4.1.bn1/aten::add/Multiply_1_compressed" type="Const" version="opset1">
			<data element_type="f16" shape="1, 512, 1, 1" offset="17622806" size="1024" />
			<output>
				<port id="0" precision="FP16">
					<dim>1</dim>
					<dim>512</dim>
					<dim>1</dim>
					<dim>1</dim>
				</port>
			</output>
		</layer>
		<layer id="149" name="__module._model.backbone.layer4.1.bn1/aten::add/Multiply_1" type="Convert" version="opset1">
			<data destination_type="f32" />
			<rt_info>
				<attribute name="decompression" version="0" />
			</rt_info>
			<input>
				<port id="0" precision="FP16">
					<dim>1</dim>
					<dim>512</dim>
					<dim>1</dim>
					<dim>1</dim>
				</port>
			</input>
			<output>
				<port id="1" precision="FP32">
					<dim>1</dim>
					<dim>512</dim>
					<dim>1</dim>
					<dim>1</dim>
				</port>
			</output>
		</layer>
		<layer id="150" name="__module._model.backbone.layer4.1.bn1/aten::add/Add_1" type="Add" version="opset1">
			<data auto_broadcast="numpy" />
			<input>
				<port id="0" precision="FP32">
					<dim>1</dim>
					<dim>512</dim>
					<dim>12</dim>
					<dim>12</dim>
				</port>
				<port id="1" precision="FP32">
					<dim>1</dim>
					<dim>512</dim>
					<dim>1</dim>
					<dim>1</dim>
				</port>
			</input>
			<output>
				<port id="2" precision="FP32" names="806_1">
					<dim>1</dim>
					<dim>512</dim>
					<dim>12</dim>
					<dim>12</dim>
				</port>
			</output>
		</layer>
		<layer id="151" name="__module._model.backbone.layer4.1.relu/aten::relu_/Relu" type="ReLU" version="opset1">
			<input>
				<port id="0" precision="FP32">
					<dim>1</dim>
					<dim>512</dim>
					<dim>12</dim>
					<dim>12</dim>
				</port>
			</input>
			<output>
				<port id="1" precision="FP32" names="806,input.69">
					<dim>1</dim>
					<dim>512</dim>
					<dim>12</dim>
					<dim>12</dim>
				</port>
			</output>
		</layer>
		<layer id="152" name="Multiply_148128_compressed" type="Const" version="opset1">
			<data element_type="f16" shape="512, 512, 3, 3" offset="17623830" size="4718592" />
			<output>
				<port id="0" precision="FP16">
					<dim>512</dim>
					<dim>512</dim>
					<dim>3</dim>
					<dim>3</dim>
				</port>
			</output>
		</layer>
		<layer id="153" name="Multiply_148128" type="Convert" version="opset1">
			<data destination_type="f32" />
			<rt_info>
				<attribute name="decompression" version="0" />
			</rt_info>
			<input>
				<port id="0" precision="FP16">
					<dim>512</dim>
					<dim>512</dim>
					<dim>3</dim>
					<dim>3</dim>
				</port>
			</input>
			<output>
				<port id="1" precision="FP32">
					<dim>512</dim>
					<dim>512</dim>
					<dim>3</dim>
					<dim>3</dim>
				</port>
			</output>
		</layer>
		<layer id="154" name="__module._model.backbone.layer4.1.bn2/aten::mul/Multiply_1" type="Convolution" version="opset1">
			<data strides="1, 1" dilations="1, 1" pads_begin="1, 1" pads_end="1, 1" auto_pad="explicit" />
			<input>
				<port id="0" precision="FP32">
					<dim>1</dim>
					<dim>512</dim>
					<dim>12</dim>
					<dim>12</dim>
				</port>
				<port id="1" precision="FP32">
					<dim>512</dim>
					<dim>512</dim>
					<dim>3</dim>
					<dim>3</dim>
				</port>
			</input>
			<output>
				<port id="2" precision="FP32" names="831">
					<dim>1</dim>
					<dim>512</dim>
					<dim>12</dim>
					<dim>12</dim>
				</port>
			</output>
		</layer>
		<layer id="155" name="__module._model.backbone.layer4.1.bn2/aten::add/Multiply_1_compressed" type="Const" version="opset1">
			<data element_type="f16" shape="1, 512, 1, 1" offset="22342422" size="1024" />
			<output>
				<port id="0" precision="FP16">
					<dim>1</dim>
					<dim>512</dim>
					<dim>1</dim>
					<dim>1</dim>
				</port>
			</output>
		</layer>
		<layer id="156" name="__module._model.backbone.layer4.1.bn2/aten::add/Multiply_1" type="Convert" version="opset1">
			<data destination_type="f32" />
			<rt_info>
				<attribute name="decompression" version="0" />
			</rt_info>
			<input>
				<port id="0" precision="FP16">
					<dim>1</dim>
					<dim>512</dim>
					<dim>1</dim>
					<dim>1</dim>
				</port>
			</input>
			<output>
				<port id="1" precision="FP32">
					<dim>1</dim>
					<dim>512</dim>
					<dim>1</dim>
					<dim>1</dim>
				</port>
			</output>
		</layer>
		<layer id="157" name="__module._model.backbone.layer4.1.bn2/aten::add/Add_1" type="Add" version="opset1">
			<data auto_broadcast="numpy" />
			<input>
				<port id="0" precision="FP32">
					<dim>1</dim>
					<dim>512</dim>
					<dim>12</dim>
					<dim>12</dim>
				</port>
				<port id="1" precision="FP32">
					<dim>1</dim>
					<dim>512</dim>
					<dim>1</dim>
					<dim>1</dim>
				</port>
			</input>
			<output>
				<port id="2" precision="FP32" names="832_1">
					<dim>1</dim>
					<dim>512</dim>
					<dim>12</dim>
					<dim>12</dim>
				</port>
			</output>
		</layer>
		<layer id="158" name="__module._model.backbone.layer4.1/aten::add_/Add" type="Add" version="opset1">
			<data auto_broadcast="numpy" />
			<input>
				<port id="0" precision="FP32">
					<dim>1</dim>
					<dim>512</dim>
					<dim>12</dim>
					<dim>12</dim>
				</port>
				<port id="1" precision="FP32">
					<dim>1</dim>
					<dim>512</dim>
					<dim>12</dim>
					<dim>12</dim>
				</port>
			</input>
			<output>
				<port id="2" precision="FP32" names="832_2">
					<dim>1</dim>
					<dim>512</dim>
					<dim>12</dim>
					<dim>12</dim>
				</port>
			</output>
		</layer>
		<layer id="159" name="__module._model.backbone.layer4.1.relu/aten::relu_/Relu_1" type="ReLU" version="opset1">
			<input>
				<port id="0" precision="FP32">
					<dim>1</dim>
					<dim>512</dim>
					<dim>12</dim>
					<dim>12</dim>
				</port>
			</input>
			<output>
				<port id="1" precision="FP32" names="833,input.73">
					<dim>1</dim>
					<dim>512</dim>
					<dim>12</dim>
					<dim>12</dim>
				</port>
			</output>
		</layer>
		<layer id="160" name="self._model.encoder_img_feat_input_proj.weight_compressed" type="Const" version="opset1">
			<data element_type="f16" shape="512, 512, 1, 1" offset="22343446" size="524288" />
			<output>
				<port id="0" precision="FP16" names="self._model.encoder_img_feat_input_proj.weight">
					<dim>512</dim>
					<dim>512</dim>
					<dim>1</dim>
					<dim>1</dim>
				</port>
			</output>
		</layer>
		<layer id="161" name="self._model.encoder_img_feat_input_proj.weight" type="Convert" version="opset1">
			<data destination_type="f32" />
			<rt_info>
				<attribute name="decompression" version="0" />
			</rt_info>
			<input>
				<port id="0" precision="FP16">
					<dim>512</dim>
					<dim>512</dim>
					<dim>1</dim>
					<dim>1</dim>
				</port>
			</input>
			<output>
				<port id="1" precision="FP32">
					<dim>512</dim>
					<dim>512</dim>
					<dim>1</dim>
					<dim>1</dim>
				</port>
			</output>
		</layer>
		<layer id="162" name="__module._model.encoder_img_feat_input_proj/aten::_convolution/Convolution" type="Convolution" version="opset1">
			<data strides="1, 1" dilations="1, 1" pads_begin="0, 0" pads_end="0, 0" auto_pad="explicit" />
			<input>
				<port id="0" precision="FP32">
					<dim>1</dim>
					<dim>512</dim>
					<dim>12</dim>
					<dim>12</dim>
				</port>
				<port id="1" precision="FP32">
					<dim>512</dim>
					<dim>512</dim>
					<dim>1</dim>
					<dim>1</dim>
				</port>
			</input>
			<output>
				<port id="2" precision="FP32">
					<dim>1</dim>
					<dim>512</dim>
					<dim>12</dim>
					<dim>12</dim>
				</port>
			</output>
		</layer>
		<layer id="163" name="__module._model.encoder_img_feat_input_proj/aten::_convolution/Reshape_compressed" type="Const" version="opset1">
			<data element_type="f16" shape="1, 512, 1, 1" offset="22867734" size="1024" />
			<output>
				<port id="0" precision="FP16">
					<dim>1</dim>
					<dim>512</dim>
					<dim>1</dim>
					<dim>1</dim>
				</port>
			</output>
		</layer>
		<layer id="164" name="__module._model.encoder_img_feat_input_proj/aten::_convolution/Reshape" type="Convert" version="opset1">
			<data destination_type="f32" />
			<rt_info>
				<attribute name="decompression" version="0" />
			</rt_info>
			<input>
				<port id="0" precision="FP16">
					<dim>1</dim>
					<dim>512</dim>
					<dim>1</dim>
					<dim>1</dim>
				</port>
			</input>
			<output>
				<port id="1" precision="FP32">
					<dim>1</dim>
					<dim>512</dim>
					<dim>1</dim>
					<dim>1</dim>
				</port>
			</output>
		</layer>
		<layer id="165" name="__module._model.encoder_img_feat_input_proj/aten::_convolution/Add" type="Add" version="opset1">
			<data auto_broadcast="numpy" />
			<input>
				<port id="0" precision="FP32">
					<dim>1</dim>
					<dim>512</dim>
					<dim>12</dim>
					<dim>12</dim>
				</port>
				<port id="1" precision="FP32">
					<dim>1</dim>
					<dim>512</dim>
					<dim>1</dim>
					<dim>1</dim>
				</port>
			</input>
			<output>
				<port id="2" precision="FP32" names="886,x.43">
					<dim>1</dim>
					<dim>512</dim>
					<dim>12</dim>
					<dim>12</dim>
				</port>
			</output>
		</layer>
		<layer id="166" name="ShapeOf_150530" type="ShapeOf" version="opset3">
			<data output_type="i64" />
			<input>
				<port id="0" precision="FP32">
					<dim>1</dim>
					<dim>512</dim>
					<dim>12</dim>
					<dim>12</dim>
				</port>
			</input>
			<output>
				<port id="1" precision="I64">
					<dim>4</dim>
				</port>
			</output>
		</layer>
		<layer id="167" name="Constant_150531" type="Const" version="opset1">
			<data element_type="i64" shape="1" offset="22868758" size="8" />
			<rt_info>
				<attribute name="precise" version="0" />
			</rt_info>
			<output>
				<port id="0" precision="I64">
					<dim>1</dim>
				</port>
			</output>
		</layer>
		<layer id="168" name="Constant_150532" type="Const" version="opset1">
			<data element_type="i64" shape="" offset="22868758" size="8" />
			<rt_info>
				<attribute name="precise" version="0" />
			</rt_info>
			<output>
				<port id="0" precision="I64" />
			</output>
		</layer>
		<layer id="169" name="Gather_150533" type="Gather" version="opset8">
			<data batch_dims="0" />
			<input>
				<port id="0" precision="I64">
					<dim>4</dim>
				</port>
				<port id="1" precision="I64">
					<dim>1</dim>
				</port>
				<port id="2" precision="I64" />
			</input>
			<output>
				<port id="3" precision="I64" names="1850,1861,1862,237,2813,2824,2825,3776,3787,3788,4128,4213,4298,4383,4485,4546,887,898,899">
					<dim>1</dim>
				</port>
			</output>
		</layer>
		<layer id="170" name="Constant_95762" type="Const" version="opset1">
			<data element_type="i64" shape="1" offset="22868766" size="8" />
			<rt_info>
				<attribute name="precise" version="0" />
			</rt_info>
			<output>
				<port id="0" precision="I64">
					<dim>1</dim>
				</port>
			</output>
		</layer>
		<layer id="171" name="__module._model/prim::ListConstruct/SequenceMark" type="Concat" version="opset1">
			<data axis="0" />
			<input>
				<port id="0" precision="I64">
					<dim>1</dim>
				</port>
				<port id="1" precision="I64">
					<dim>1</dim>
				</port>
				<port id="2" precision="I64">
					<dim>1</dim>
				</port>
			</input>
			<output>
				<port id="3" precision="I64">
					<dim>3</dim>
				</port>
			</output>
		</layer>
		<layer id="172" name="__module._model/aten::zeros/Broadcast" type="Broadcast" version="opset3">
			<data mode="numpy" />
			<input>
				<port id="0" precision="FP32" />
				<port id="1" precision="I64">
					<dim>3</dim>
				</port>
			</input>
			<output>
				<port id="2" precision="FP32" names="4455,tensor.1">
					<dim>100</dim>
					<dim>1</dim>
					<dim>512</dim>
				</port>
			</output>
		</layer>
		<layer id="173" name="__module._model.decoder.layers.0/aten::add/Multiply_compressed" type="Const" version="opset1">
			<data element_type="f16" shape="100, 1, 512" offset="22868774" size="102400" />
			<output>
				<port id="0" precision="FP16">
					<dim>100</dim>
					<dim>1</dim>
					<dim>512</dim>
				</port>
			</output>
		</layer>
		<layer id="174" name="__module._model.decoder.layers.0/aten::add/Multiply" type="Convert" version="opset1">
			<data destination_type="f32" />
			<rt_info>
				<attribute name="decompression" version="0" />
			</rt_info>
			<input>
				<port id="0" precision="FP16">
					<dim>100</dim>
					<dim>1</dim>
					<dim>512</dim>
				</port>
			</input>
			<output>
				<port id="1" precision="FP32">
					<dim>100</dim>
					<dim>1</dim>
					<dim>512</dim>
				</port>
			</output>
		</layer>
		<layer id="175" name="__module._model.decoder.layers.0/aten::add/Add" type="Add" version="opset1">
			<data auto_broadcast="numpy" />
			<input>
				<port id="0" precision="FP32">
					<dim>100</dim>
					<dim>1</dim>
					<dim>512</dim>
				</port>
				<port id="1" precision="FP32">
					<dim>100</dim>
					<dim>1</dim>
					<dim>512</dim>
				</port>
			</input>
			<output>
				<port id="2" precision="FP32" names="4476,query.9">
					<dim>100</dim>
					<dim>1</dim>
					<dim>512</dim>
				</port>
			</output>
		</layer>
		<layer id="176" name="__module._model.decoder.layers.0.self_attn/prim::ListUnpack/VariadicSplit.0_compressed" type="Const" version="opset1">
			<data element_type="f16" shape="512, 512" offset="22971174" size="524288" />
			<output>
				<port id="0" precision="FP16" names="4494,w_q.9">
					<dim>512</dim>
					<dim>512</dim>
				</port>
			</output>
		</layer>
		<layer id="177" name="__module._model.decoder.layers.0.self_attn/prim::ListUnpack/VariadicSplit.0" type="Convert" version="opset1">
			<data destination_type="f32" />
			<rt_info>
				<attribute name="decompression" version="0" />
			</rt_info>
			<input>
				<port id="0" precision="FP16">
					<dim>512</dim>
					<dim>512</dim>
				</port>
			</input>
			<output>
				<port id="1" precision="FP32">
					<dim>512</dim>
					<dim>512</dim>
				</port>
			</output>
		</layer>
		<layer id="178" name="__module._model.decoder.layers.0.self_attn/aten::linear/MatMul" type="MatMul" version="opset1">
			<data transpose_a="false" transpose_b="true" />
			<input>
				<port id="0" precision="FP32">
					<dim>100</dim>
					<dim>1</dim>
					<dim>512</dim>
				</port>
				<port id="1" precision="FP32">
					<dim>512</dim>
					<dim>512</dim>
				</port>
			</input>
			<output>
				<port id="2" precision="FP32">
					<dim>100</dim>
					<dim>1</dim>
					<dim>512</dim>
				</port>
			</output>
		</layer>
		<layer id="179" name="Constant_148864_compressed" type="Const" version="opset1">
			<data element_type="f16" shape="1, 1, 512" offset="23495462" size="1024" />
			<output>
				<port id="0" precision="FP16">
					<dim>1</dim>
					<dim>1</dim>
					<dim>512</dim>
				</port>
			</output>
		</layer>
		<layer id="180" name="Constant_148864" type="Convert" version="opset1">
			<data destination_type="f32" />
			<rt_info>
				<attribute name="decompression" version="0" />
			</rt_info>
			<input>
				<port id="0" precision="FP16">
					<dim>1</dim>
					<dim>1</dim>
					<dim>512</dim>
				</port>
			</input>
			<output>
				<port id="1" precision="FP32">
					<dim>1</dim>
					<dim>1</dim>
					<dim>512</dim>
				</port>
			</output>
		</layer>
		<layer id="181" name="__module._model.decoder.layers.0.self_attn/aten::linear/Add" type="Add" version="opset1">
			<data auto_broadcast="numpy" />
			<input>
				<port id="0" precision="FP32">
					<dim>100</dim>
					<dim>1</dim>
					<dim>512</dim>
				</port>
				<port id="1" precision="FP32">
					<dim>1</dim>
					<dim>1</dim>
					<dim>512</dim>
				</port>
			</input>
			<output>
				<port id="2" precision="FP32" names="4501,q.17">
					<dim>100</dim>
					<dim>1</dim>
					<dim>512</dim>
				</port>
			</output>
		</layer>
		<layer id="182" name="Constant_150706" type="Const" version="opset1">
			<data element_type="i64" shape="3" offset="23496486" size="24" />
			<rt_info>
				<attribute name="precise" version="0" />
			</rt_info>
			<output>
				<port id="0" precision="I64">
					<dim>3</dim>
				</port>
			</output>
		</layer>
		<layer id="183" name="__module._model.decoder.layers.0.self_attn/aten::view/Reshape" type="Reshape" version="opset1">
			<data special_zero="true" />
			<input>
				<port id="0" precision="FP32">
					<dim>100</dim>
					<dim>1</dim>
					<dim>512</dim>
				</port>
				<port id="1" precision="I64">
					<dim>3</dim>
				</port>
			</input>
			<output>
				<port id="2" precision="FP32" names="4507">
					<dim>100</dim>
					<dim>8</dim>
					<dim>64</dim>
				</port>
			</output>
		</layer>
		<layer id="184" name="__module._model.decoder.layers.0.self_attn/aten::transpose/Constant" type="Const" version="opset1">
			<data element_type="i32" shape="3" offset="23496510" size="12" />
			<output>
				<port id="0" precision="I32">
					<dim>3</dim>
				</port>
			</output>
		</layer>
		<layer id="185" name="__module._model.decoder.layers.0.self_attn/aten::transpose/Transpose" type="Transpose" version="opset1">
			<input>
				<port id="0" precision="FP32">
					<dim>100</dim>
					<dim>8</dim>
					<dim>64</dim>
				</port>
				<port id="1" precision="I32">
					<dim>3</dim>
				</port>
			</input>
			<output>
				<port id="2" precision="FP32" names="4508,q.19">
					<dim>8</dim>
					<dim>100</dim>
					<dim>64</dim>
				</port>
			</output>
		</layer>
		<layer id="186" name="Constant_148865_compressed" type="Const" version="opset1">
			<data element_type="f16" shape="1, 1, 1" offset="23496522" size="2" />
			<output>
				<port id="0" precision="FP16">
					<dim>1</dim>
					<dim>1</dim>
					<dim>1</dim>
				</port>
			</output>
		</layer>
		<layer id="187" name="Constant_148865" type="Convert" version="opset1">
			<data destination_type="f32" />
			<rt_info>
				<attribute name="decompression" version="0" />
			</rt_info>
			<input>
				<port id="0" precision="FP16">
					<dim>1</dim>
					<dim>1</dim>
					<dim>1</dim>
				</port>
			</input>
			<output>
				<port id="1" precision="FP32">
					<dim>1</dim>
					<dim>1</dim>
					<dim>1</dim>
				</port>
			</output>
		</layer>
		<layer id="188" name="__module._model.decoder.layers.0.self_attn/aten::mul/Multiply_1" type="Multiply" version="opset1">
			<data auto_broadcast="numpy" />
			<input>
				<port id="0" precision="FP32">
					<dim>8</dim>
					<dim>100</dim>
					<dim>64</dim>
				</port>
				<port id="1" precision="FP32">
					<dim>1</dim>
					<dim>1</dim>
					<dim>1</dim>
				</port>
			</input>
			<output>
				<port id="2" precision="FP32" names="4521,q_scaled.9">
					<dim>8</dim>
					<dim>100</dim>
					<dim>64</dim>
				</port>
			</output>
		</layer>
		<layer id="189" name="__module._model.decoder.layers.0.self_attn/prim::ListUnpack/VariadicSplit.1_compressed" type="Const" version="opset1">
			<data element_type="f16" shape="512, 512" offset="23496524" size="524288" />
			<output>
				<port id="0" precision="FP16" names="4495,w_k.9">
					<dim>512</dim>
					<dim>512</dim>
				</port>
			</output>
		</layer>
		<layer id="190" name="__module._model.decoder.layers.0.self_attn/prim::ListUnpack/VariadicSplit.1" type="Convert" version="opset1">
			<data destination_type="f32" />
			<rt_info>
				<attribute name="decompression" version="0" />
			</rt_info>
			<input>
				<port id="0" precision="FP16">
					<dim>512</dim>
					<dim>512</dim>
				</port>
			</input>
			<output>
				<port id="1" precision="FP32">
					<dim>512</dim>
					<dim>512</dim>
				</port>
			</output>
		</layer>
		<layer id="191" name="__module._model.decoder.layers.0.self_attn/aten::linear/MatMul_1" type="MatMul" version="opset1">
			<data transpose_a="false" transpose_b="true" />
			<input>
				<port id="0" precision="FP32">
					<dim>100</dim>
					<dim>1</dim>
					<dim>512</dim>
				</port>
				<port id="1" precision="FP32">
					<dim>512</dim>
					<dim>512</dim>
				</port>
			</input>
			<output>
				<port id="2" precision="FP32">
					<dim>100</dim>
					<dim>1</dim>
					<dim>512</dim>
				</port>
			</output>
		</layer>
		<layer id="192" name="Constant_148866_compressed" type="Const" version="opset1">
			<data element_type="f16" shape="1, 1, 512" offset="24020812" size="1024" />
			<output>
				<port id="0" precision="FP16">
					<dim>1</dim>
					<dim>1</dim>
					<dim>512</dim>
				</port>
			</output>
		</layer>
		<layer id="193" name="Constant_148866" type="Convert" version="opset1">
			<data destination_type="f32" />
			<rt_info>
				<attribute name="decompression" version="0" />
			</rt_info>
			<input>
				<port id="0" precision="FP16">
					<dim>1</dim>
					<dim>1</dim>
					<dim>512</dim>
				</port>
			</input>
			<output>
				<port id="1" precision="FP32">
					<dim>1</dim>
					<dim>1</dim>
					<dim>512</dim>
				</port>
			</output>
		</layer>
		<layer id="194" name="__module._model.decoder.layers.0.self_attn/aten::linear/Add_1" type="Add" version="opset1">
			<data auto_broadcast="numpy" />
			<input>
				<port id="0" precision="FP32">
					<dim>100</dim>
					<dim>1</dim>
					<dim>512</dim>
				</port>
				<port id="1" precision="FP32">
					<dim>1</dim>
					<dim>1</dim>
					<dim>512</dim>
				</port>
			</input>
			<output>
				<port id="2" precision="FP32" names="4502,k.17">
					<dim>100</dim>
					<dim>1</dim>
					<dim>512</dim>
				</port>
			</output>
		</layer>
		<layer id="195" name="Constant_150707" type="Const" version="opset1">
			<data element_type="i64" shape="3" offset="23496486" size="24" />
			<rt_info>
				<attribute name="precise" version="0" />
			</rt_info>
			<output>
				<port id="0" precision="I64">
					<dim>3</dim>
				</port>
			</output>
		</layer>
		<layer id="196" name="__module._model.decoder.layers.0.self_attn/aten::view/Reshape_1" type="Reshape" version="opset1">
			<data special_zero="true" />
			<input>
				<port id="0" precision="FP32">
					<dim>100</dim>
					<dim>1</dim>
					<dim>512</dim>
				</port>
				<port id="1" precision="I64">
					<dim>3</dim>
				</port>
			</input>
			<output>
				<port id="2" precision="FP32" names="4513">
					<dim>100</dim>
					<dim>8</dim>
					<dim>64</dim>
				</port>
			</output>
		</layer>
		<layer id="197" name="__module._model.decoder.layers.0.self_attn/aten::transpose/Constant_1" type="Const" version="opset1">
			<data element_type="i32" shape="3" offset="23496510" size="12" />
			<output>
				<port id="0" precision="I32">
					<dim>3</dim>
				</port>
			</output>
		</layer>
		<layer id="198" name="__module._model.decoder.layers.0.self_attn/aten::transpose/Transpose_1" type="Transpose" version="opset1">
			<input>
				<port id="0" precision="FP32">
					<dim>100</dim>
					<dim>8</dim>
					<dim>64</dim>
				</port>
				<port id="1" precision="I32">
					<dim>3</dim>
				</port>
			</input>
			<output>
				<port id="2" precision="FP32" names="4514,k.19">
					<dim>8</dim>
					<dim>100</dim>
					<dim>64</dim>
				</port>
			</output>
		</layer>
		<layer id="199" name="__module._model.decoder.layers.0.self_attn/aten::bmm/MatMul" type="MatMul" version="opset1">
			<data transpose_a="false" transpose_b="true" />
			<input>
				<port id="0" precision="FP32">
					<dim>8</dim>
					<dim>100</dim>
					<dim>64</dim>
				</port>
				<port id="1" precision="FP32">
					<dim>8</dim>
					<dim>100</dim>
					<dim>64</dim>
				</port>
			</input>
			<output>
				<port id="2" precision="FP32" names="4523,input.357">
					<dim>8</dim>
					<dim>100</dim>
					<dim>100</dim>
				</port>
			</output>
		</layer>
		<layer id="200" name="__module._model.decoder.layers.0.self_attn/aten::softmax/Softmax" type="SoftMax" version="opset8">
			<data axis="-1" />
			<input>
				<port id="0" precision="FP32">
					<dim>8</dim>
					<dim>100</dim>
					<dim>100</dim>
				</port>
			</input>
			<output>
				<port id="1" precision="FP32" names="4524,attn_output_weights.17">
					<dim>8</dim>
					<dim>100</dim>
					<dim>100</dim>
				</port>
			</output>
		</layer>
		<layer id="201" name="__module._model.decoder.layers.0.self_attn/prim::ListUnpack/VariadicSplit.2_compressed" type="Const" version="opset1">
			<data element_type="f16" shape="512, 512" offset="24021836" size="524288" />
			<output>
				<port id="0" precision="FP16" names="4496,w_v.9">
					<dim>512</dim>
					<dim>512</dim>
				</port>
			</output>
		</layer>
		<layer id="202" name="__module._model.decoder.layers.0.self_attn/prim::ListUnpack/VariadicSplit.2" type="Convert" version="opset1">
			<data destination_type="f32" />
			<rt_info>
				<attribute name="decompression" version="0" />
			</rt_info>
			<input>
				<port id="0" precision="FP16">
					<dim>512</dim>
					<dim>512</dim>
				</port>
			</input>
			<output>
				<port id="1" precision="FP32">
					<dim>512</dim>
					<dim>512</dim>
				</port>
			</output>
		</layer>
		<layer id="203" name="__module._model.decoder.layers.0.self_attn/aten::linear/MatMul_2" type="MatMul" version="opset1">
			<data transpose_a="false" transpose_b="true" />
			<input>
				<port id="0" precision="FP32">
					<dim>100</dim>
					<dim>1</dim>
					<dim>512</dim>
				</port>
				<port id="1" precision="FP32">
					<dim>512</dim>
					<dim>512</dim>
				</port>
			</input>
			<output>
				<port id="2" precision="FP32">
					<dim>100</dim>
					<dim>1</dim>
					<dim>512</dim>
				</port>
			</output>
		</layer>
		<layer id="204" name="Constant_148867_compressed" type="Const" version="opset1">
			<data element_type="f16" shape="1, 1, 512" offset="24546124" size="1024" />
			<output>
				<port id="0" precision="FP16">
					<dim>1</dim>
					<dim>1</dim>
					<dim>512</dim>
				</port>
			</output>
		</layer>
		<layer id="205" name="Constant_148867" type="Convert" version="opset1">
			<data destination_type="f32" />
			<rt_info>
				<attribute name="decompression" version="0" />
			</rt_info>
			<input>
				<port id="0" precision="FP16">
					<dim>1</dim>
					<dim>1</dim>
					<dim>512</dim>
				</port>
			</input>
			<output>
				<port id="1" precision="FP32">
					<dim>1</dim>
					<dim>1</dim>
					<dim>512</dim>
				</port>
			</output>
		</layer>
		<layer id="206" name="__module._model.decoder.layers.0.self_attn/aten::linear/Add_2" type="Add" version="opset1">
			<data auto_broadcast="numpy" />
			<input>
				<port id="0" precision="FP32">
					<dim>100</dim>
					<dim>1</dim>
					<dim>512</dim>
				</port>
				<port id="1" precision="FP32">
					<dim>1</dim>
					<dim>1</dim>
					<dim>512</dim>
				</port>
			</input>
			<output>
				<port id="2" precision="FP32" names="4503,v.17">
					<dim>100</dim>
					<dim>1</dim>
					<dim>512</dim>
				</port>
			</output>
		</layer>
		<layer id="207" name="Constant_150708" type="Const" version="opset1">
			<data element_type="i64" shape="3" offset="23496486" size="24" />
			<rt_info>
				<attribute name="precise" version="0" />
			</rt_info>
			<output>
				<port id="0" precision="I64">
					<dim>3</dim>
				</port>
			</output>
		</layer>
		<layer id="208" name="__module._model.decoder.layers.0.self_attn/aten::view/Reshape_2" type="Reshape" version="opset1">
			<data special_zero="true" />
			<input>
				<port id="0" precision="FP32">
					<dim>100</dim>
					<dim>1</dim>
					<dim>512</dim>
				</port>
				<port id="1" precision="I64">
					<dim>3</dim>
				</port>
			</input>
			<output>
				<port id="2" precision="FP32" names="4519">
					<dim>100</dim>
					<dim>8</dim>
					<dim>64</dim>
				</port>
			</output>
		</layer>
		<layer id="209" name="__module._model.decoder.layers.0.self_attn/aten::transpose/Constant_3" type="Const" version="opset1">
			<data element_type="i32" shape="3" offset="23496510" size="12" />
			<output>
				<port id="0" precision="I32">
					<dim>3</dim>
				</port>
			</output>
		</layer>
		<layer id="210" name="__module._model.decoder.layers.0.self_attn/aten::transpose/Transpose_3" type="Transpose" version="opset1">
			<input>
				<port id="0" precision="FP32">
					<dim>100</dim>
					<dim>8</dim>
					<dim>64</dim>
				</port>
				<port id="1" precision="I32">
					<dim>3</dim>
				</port>
			</input>
			<output>
				<port id="2" precision="FP32" names="4520,v.19">
					<dim>8</dim>
					<dim>100</dim>
					<dim>64</dim>
				</port>
			</output>
		</layer>
		<layer id="211" name="__module._model.decoder.layers.0.self_attn/aten::bmm/MatMul_1" type="MatMul" version="opset1">
			<data transpose_a="false" transpose_b="false" />
			<input>
				<port id="0" precision="FP32">
					<dim>8</dim>
					<dim>100</dim>
					<dim>100</dim>
				</port>
				<port id="1" precision="FP32">
					<dim>8</dim>
					<dim>100</dim>
					<dim>64</dim>
				</port>
			</input>
			<output>
				<port id="2" precision="FP32" names="4525,attn_output.25">
					<dim>8</dim>
					<dim>100</dim>
					<dim>64</dim>
				</port>
			</output>
		</layer>
		<layer id="212" name="__module._model.decoder.layers.0.self_attn/aten::transpose/Constant_4" type="Const" version="opset1">
			<data element_type="i32" shape="3" offset="23496510" size="12" />
			<output>
				<port id="0" precision="I32">
					<dim>3</dim>
				</port>
			</output>
		</layer>
		<layer id="213" name="__module._model.decoder.layers.0.self_attn/aten::transpose/Transpose_4" type="Transpose" version="opset1">
			<input>
				<port id="0" precision="FP32">
					<dim>8</dim>
					<dim>100</dim>
					<dim>64</dim>
				</port>
				<port id="1" precision="I32">
					<dim>3</dim>
				</port>
			</input>
			<output>
				<port id="2" precision="FP32" names="4526">
					<dim>100</dim>
					<dim>8</dim>
					<dim>64</dim>
				</port>
			</output>
		</layer>
		<layer id="214" name="Concat_127177" type="Const" version="opset1">
			<data element_type="i64" shape="2" offset="24547148" size="16" />
			<rt_info>
				<attribute name="precise" version="0" />
			</rt_info>
			<output>
				<port id="0" precision="I64">
					<dim>2</dim>
				</port>
			</output>
		</layer>
		<layer id="215" name="__module._model.decoder.layers.0.self_attn/aten::view/Reshape_3" type="Reshape" version="opset1">
			<data special_zero="false" />
			<input>
				<port id="0" precision="FP32">
					<dim>100</dim>
					<dim>8</dim>
					<dim>64</dim>
				</port>
				<port id="1" precision="I64">
					<dim>2</dim>
				</port>
			</input>
			<output>
				<port id="2" precision="FP32" names="4531,attn_output.27">
					<dim>100</dim>
					<dim>512</dim>
				</port>
			</output>
		</layer>
		<layer id="216" name="self._model.decoder.layers.0.self_attn.out_proj.weight_compressed" type="Const" version="opset1">
			<data element_type="f16" shape="512, 512" offset="24547164" size="524288" />
			<output>
				<port id="0" precision="FP16" names="self._model.decoder.layers.0.self_attn.out_proj.weight">
					<dim>512</dim>
					<dim>512</dim>
				</port>
			</output>
		</layer>
		<layer id="217" name="self._model.decoder.layers.0.self_attn.out_proj.weight" type="Convert" version="opset1">
			<data destination_type="f32" />
			<rt_info>
				<attribute name="decompression" version="0" />
			</rt_info>
			<input>
				<port id="0" precision="FP16">
					<dim>512</dim>
					<dim>512</dim>
				</port>
			</input>
			<output>
				<port id="1" precision="FP32">
					<dim>512</dim>
					<dim>512</dim>
				</port>
			</output>
		</layer>
		<layer id="218" name="__module._model.decoder.layers.0.self_attn/aten::linear/MatMul_3" type="MatMul" version="opset1">
			<data transpose_a="false" transpose_b="true" />
			<input>
				<port id="0" precision="FP32">
					<dim>100</dim>
					<dim>512</dim>
				</port>
				<port id="1" precision="FP32">
					<dim>512</dim>
					<dim>512</dim>
				</port>
			</input>
			<output>
				<port id="2" precision="FP32">
					<dim>100</dim>
					<dim>512</dim>
				</port>
			</output>
		</layer>
		<layer id="219" name="Constant_148868_compressed" type="Const" version="opset1">
			<data element_type="f16" shape="1, 512" offset="25071452" size="1024" />
			<output>
				<port id="0" precision="FP16">
					<dim>1</dim>
					<dim>512</dim>
				</port>
			</output>
		</layer>
		<layer id="220" name="Constant_148868" type="Convert" version="opset1">
			<data destination_type="f32" />
			<rt_info>
				<attribute name="decompression" version="0" />
			</rt_info>
			<input>
				<port id="0" precision="FP16">
					<dim>1</dim>
					<dim>512</dim>
				</port>
			</input>
			<output>
				<port id="1" precision="FP32">
					<dim>1</dim>
					<dim>512</dim>
				</port>
			</output>
		</layer>
		<layer id="221" name="__module._model.decoder.layers.0.self_attn/aten::linear/Add_3" type="Add" version="opset1">
			<data auto_broadcast="numpy" />
			<input>
				<port id="0" precision="FP32">
					<dim>100</dim>
					<dim>512</dim>
				</port>
				<port id="1" precision="FP32">
					<dim>1</dim>
					<dim>512</dim>
				</port>
			</input>
			<output>
				<port id="2" precision="FP32" names="4532,attn_output.29">
					<dim>100</dim>
					<dim>512</dim>
				</port>
			</output>
		</layer>
		<layer id="222" name="Constant_150709" type="Const" version="opset1">
			<data element_type="i64" shape="3" offset="25072476" size="24" />
			<rt_info>
				<attribute name="precise" version="0" />
			</rt_info>
			<output>
				<port id="0" precision="I64">
					<dim>3</dim>
				</port>
			</output>
		</layer>
		<layer id="223" name="__module._model.decoder.layers.0.self_attn/aten::view/Reshape_4" type="Reshape" version="opset1">
			<data special_zero="true" />
			<input>
				<port id="0" precision="FP32">
					<dim>100</dim>
					<dim>512</dim>
				</port>
				<port id="1" precision="I64">
					<dim>3</dim>
				</port>
			</input>
			<output>
				<port id="2" precision="FP32" names="4535,input.359">
					<dim>100</dim>
					<dim>1</dim>
					<dim>512</dim>
				</port>
			</output>
		</layer>
		<layer id="224" name="__module._model.decoder.layers.0/aten::add/Add_1" type="Add" version="opset1">
			<data auto_broadcast="numpy" />
			<input>
				<port id="0" precision="FP32">
					<dim>100</dim>
					<dim>1</dim>
					<dim>512</dim>
				</port>
				<port id="1" precision="FP32">
					<dim>100</dim>
					<dim>1</dim>
					<dim>512</dim>
				</port>
			</input>
			<output>
				<port id="2" precision="FP32" names="4537,input.361">
					<dim>100</dim>
					<dim>1</dim>
					<dim>512</dim>
				</port>
			</output>
		</layer>
		<layer id="225" name="__module._model.decoder.layers.0.norm1/aten::layer_norm/Multiply" type="Const" version="opset1">
			<data element_type="i32" shape="1" offset="25072500" size="4" />
			<output>
				<port id="0" precision="I32">
					<dim>1</dim>
				</port>
			</output>
		</layer>
		<layer id="226" name="__module._model.decoder.layers.0.norm1/aten::layer_norm/MVN" type="MVN" version="opset6">
			<data eps="9.9999997473787516e-06" normalize_variance="true" eps_mode="INSIDE_SQRT" />
			<input>
				<port id="0" precision="FP32">
					<dim>100</dim>
					<dim>1</dim>
					<dim>512</dim>
				</port>
				<port id="1" precision="I32">
					<dim>1</dim>
				</port>
			</input>
			<output>
				<port id="2" precision="FP32">
					<dim>100</dim>
					<dim>1</dim>
					<dim>512</dim>
				</port>
			</output>
		</layer>
		<layer id="227" name="Constant_148869_compressed" type="Const" version="opset1">
			<data element_type="f16" shape="1, 1, 512" offset="25072504" size="1024" />
			<output>
				<port id="0" precision="FP16">
					<dim>1</dim>
					<dim>1</dim>
					<dim>512</dim>
				</port>
			</output>
		</layer>
		<layer id="228" name="Constant_148869" type="Convert" version="opset1">
			<data destination_type="f32" />
			<rt_info>
				<attribute name="decompression" version="0" />
			</rt_info>
			<input>
				<port id="0" precision="FP16">
					<dim>1</dim>
					<dim>1</dim>
					<dim>512</dim>
				</port>
			</input>
			<output>
				<port id="1" precision="FP32">
					<dim>1</dim>
					<dim>1</dim>
					<dim>512</dim>
				</port>
			</output>
		</layer>
		<layer id="229" name="__module._model.decoder.layers.0.norm1/aten::layer_norm/Multiply_1" type="Multiply" version="opset1">
			<data auto_broadcast="numpy" />
			<input>
				<port id="0" precision="FP32">
					<dim>100</dim>
					<dim>1</dim>
					<dim>512</dim>
				</port>
				<port id="1" precision="FP32">
					<dim>1</dim>
					<dim>1</dim>
					<dim>512</dim>
				</port>
			</input>
			<output>
				<port id="2" precision="FP32">
					<dim>100</dim>
					<dim>1</dim>
					<dim>512</dim>
				</port>
			</output>
		</layer>
		<layer id="230" name="Constant_148870_compressed" type="Const" version="opset1">
			<data element_type="f16" shape="1, 1, 512" offset="25073528" size="1024" />
			<output>
				<port id="0" precision="FP16">
					<dim>1</dim>
					<dim>1</dim>
					<dim>512</dim>
				</port>
			</output>
		</layer>
		<layer id="231" name="Constant_148870" type="Convert" version="opset1">
			<data destination_type="f32" />
			<rt_info>
				<attribute name="decompression" version="0" />
			</rt_info>
			<input>
				<port id="0" precision="FP16">
					<dim>1</dim>
					<dim>1</dim>
					<dim>512</dim>
				</port>
			</input>
			<output>
				<port id="1" precision="FP32">
					<dim>1</dim>
					<dim>1</dim>
					<dim>512</dim>
				</port>
			</output>
		</layer>
		<layer id="232" name="__module._model.decoder.layers.0.norm1/aten::layer_norm/Add" type="Add" version="opset1">
			<data auto_broadcast="numpy" />
			<input>
				<port id="0" precision="FP32">
					<dim>100</dim>
					<dim>1</dim>
					<dim>512</dim>
				</port>
				<port id="1" precision="FP32">
					<dim>1</dim>
					<dim>1</dim>
					<dim>512</dim>
				</port>
			</input>
			<output>
				<port id="2" precision="FP32" names="4541,tensor.3">
					<dim>100</dim>
					<dim>1</dim>
					<dim>512</dim>
				</port>
			</output>
		</layer>
		<layer id="233" name="__module._model.decoder.layers.0/aten::add/Add_2" type="Add" version="opset1">
			<data auto_broadcast="numpy" />
			<input>
				<port id="0" precision="FP32">
					<dim>100</dim>
					<dim>1</dim>
					<dim>512</dim>
				</port>
				<port id="1" precision="FP32">
					<dim>100</dim>
					<dim>1</dim>
					<dim>512</dim>
				</port>
			</input>
			<output>
				<port id="2" precision="FP32" names="4542,query">
					<dim>100</dim>
					<dim>1</dim>
					<dim>512</dim>
				</port>
			</output>
		</layer>
		<layer id="234" name="__module._model.explain_attention_layer/prim::ListUnpack/VariadicSplit.0_compressed" type="Const" version="opset1">
			<data element_type="f16" shape="512, 512" offset="25074552" size="524288" />
			<output>
				<port id="0" precision="FP16" names="4555,w_q">
					<dim>512</dim>
					<dim>512</dim>
				</port>
			</output>
		</layer>
		<layer id="235" name="__module._model.explain_attention_layer/prim::ListUnpack/VariadicSplit.0" type="Convert" version="opset1">
			<data destination_type="f32" />
			<rt_info>
				<attribute name="decompression" version="0" />
			</rt_info>
			<input>
				<port id="0" precision="FP16">
					<dim>512</dim>
					<dim>512</dim>
				</port>
			</input>
			<output>
				<port id="1" precision="FP32">
					<dim>512</dim>
					<dim>512</dim>
				</port>
			</output>
		</layer>
		<layer id="236" name="__module._model.explain_attention_layer/aten::linear/MatMul" type="MatMul" version="opset1">
			<data transpose_a="false" transpose_b="true" />
			<input>
				<port id="0" precision="FP32">
					<dim>100</dim>
					<dim>1</dim>
					<dim>512</dim>
				</port>
				<port id="1" precision="FP32">
					<dim>512</dim>
					<dim>512</dim>
				</port>
			</input>
			<output>
				<port id="2" precision="FP32">
					<dim>100</dim>
					<dim>1</dim>
					<dim>512</dim>
				</port>
			</output>
		</layer>
		<layer id="237" name="Constant_148871_compressed" type="Const" version="opset1">
			<data element_type="f16" shape="1, 1, 512" offset="25598840" size="1024" />
			<output>
				<port id="0" precision="FP16">
					<dim>1</dim>
					<dim>1</dim>
					<dim>512</dim>
				</port>
			</output>
		</layer>
		<layer id="238" name="Constant_148871" type="Convert" version="opset1">
			<data destination_type="f32" />
			<rt_info>
				<attribute name="decompression" version="0" />
			</rt_info>
			<input>
				<port id="0" precision="FP16">
					<dim>1</dim>
					<dim>1</dim>
					<dim>512</dim>
				</port>
			</input>
			<output>
				<port id="1" precision="FP32">
					<dim>1</dim>
					<dim>1</dim>
					<dim>512</dim>
				</port>
			</output>
		</layer>
		<layer id="239" name="__module._model.explain_attention_layer/aten::linear/Add" type="Add" version="opset1">
			<data auto_broadcast="numpy" />
			<input>
				<port id="0" precision="FP32">
					<dim>100</dim>
					<dim>1</dim>
					<dim>512</dim>
				</port>
				<port id="1" precision="FP32">
					<dim>1</dim>
					<dim>1</dim>
					<dim>512</dim>
				</port>
			</input>
			<output>
				<port id="2" precision="FP32" names="4562,q.21">
					<dim>100</dim>
					<dim>1</dim>
					<dim>512</dim>
				</port>
			</output>
		</layer>
		<layer id="240" name="Constant_150710" type="Const" version="opset1">
			<data element_type="i64" shape="3" offset="23496486" size="24" />
			<rt_info>
				<attribute name="precise" version="0" />
			</rt_info>
			<output>
				<port id="0" precision="I64">
					<dim>3</dim>
				</port>
			</output>
		</layer>
		<layer id="241" name="__module._model.explain_attention_layer/aten::view/Reshape" type="Reshape" version="opset1">
			<data special_zero="true" />
			<input>
				<port id="0" precision="FP32">
					<dim>100</dim>
					<dim>1</dim>
					<dim>512</dim>
				</port>
				<port id="1" precision="I64">
					<dim>3</dim>
				</port>
			</input>
			<output>
				<port id="2" precision="FP32" names="4568">
					<dim>100</dim>
					<dim>8</dim>
					<dim>64</dim>
				</port>
			</output>
		</layer>
		<layer id="242" name="__module._model.explain_attention_layer/aten::transpose/Constant" type="Const" version="opset1">
			<data element_type="i32" shape="3" offset="23496510" size="12" />
			<output>
				<port id="0" precision="I32">
					<dim>3</dim>
				</port>
			</output>
		</layer>
		<layer id="243" name="__module._model.explain_attention_layer/aten::transpose/Transpose" type="Transpose" version="opset1">
			<input>
				<port id="0" precision="FP32">
					<dim>100</dim>
					<dim>8</dim>
					<dim>64</dim>
				</port>
				<port id="1" precision="I32">
					<dim>3</dim>
				</port>
			</input>
			<output>
				<port id="2" precision="FP32" names="4569,q">
					<dim>8</dim>
					<dim>100</dim>
					<dim>64</dim>
				</port>
			</output>
		</layer>
		<layer id="244" name="Constant_148872_compressed" type="Const" version="opset1">
			<data element_type="f16" shape="1, 1, 1" offset="23496522" size="2" />
			<output>
				<port id="0" precision="FP16">
					<dim>1</dim>
					<dim>1</dim>
					<dim>1</dim>
				</port>
			</output>
		</layer>
		<layer id="245" name="Constant_148872" type="Convert" version="opset1">
			<data destination_type="f32" />
			<rt_info>
				<attribute name="decompression" version="0" />
			</rt_info>
			<input>
				<port id="0" precision="FP16">
					<dim>1</dim>
					<dim>1</dim>
					<dim>1</dim>
				</port>
			</input>
			<output>
				<port id="1" precision="FP32">
					<dim>1</dim>
					<dim>1</dim>
					<dim>1</dim>
				</port>
			</output>
		</layer>
		<layer id="246" name="__module._model.explain_attention_layer/aten::mul/Multiply_1" type="Multiply" version="opset1">
			<data auto_broadcast="numpy" />
			<input>
				<port id="0" precision="FP32">
					<dim>8</dim>
					<dim>100</dim>
					<dim>64</dim>
				</port>
				<port id="1" precision="FP32">
					<dim>1</dim>
					<dim>1</dim>
					<dim>1</dim>
				</port>
			</input>
			<output>
				<port id="2" precision="FP32" names="4582,q_scaled">
					<dim>8</dim>
					<dim>100</dim>
					<dim>64</dim>
				</port>
			</output>
		</layer>
		<layer id="247" name="__module._model/aten::zeros/Convert_1_compressed" type="Const" version="opset1">
			<data element_type="f16" shape="" offset="0" size="2" />
			<output>
				<port id="0" precision="FP16" />
			</output>
		</layer>
		<layer id="248" name="__module._model/aten::zeros/Convert_1" type="Convert" version="opset1">
			<data destination_type="f32" />
			<rt_info>
				<attribute name="decompression" version="0" />
			</rt_info>
			<input>
				<port id="0" precision="FP16" />
			</input>
			<output>
				<port id="1" precision="FP32" />
			</output>
		</layer>
		<layer id="249" name="Constant_72145" type="Const" version="opset1">
			<data element_type="i64" shape="1" offset="25599864" size="8" />
			<rt_info>
				<attribute name="precise" version="0" />
			</rt_info>
			<output>
				<port id="0" precision="I64">
					<dim>1</dim>
				</port>
			</output>
		</layer>
		<layer id="250" name="__module._model/prim::ListConstruct/SequenceMark_1" type="Concat" version="opset1">
			<data axis="0" />
			<input>
				<port id="0" precision="I64">
					<dim>1</dim>
				</port>
				<port id="1" precision="I64">
					<dim>1</dim>
				</port>
			</input>
			<output>
				<port id="2" precision="I64">
					<dim>2</dim>
				</port>
			</output>
		</layer>
		<layer id="251" name="__module._model/aten::zeros/Broadcast_1" type="Broadcast" version="opset3">
			<data mode="numpy" />
			<input>
				<port id="0" precision="FP32" />
				<port id="1" precision="I64">
					<dim>2</dim>
				</port>
			</input>
			<output>
				<port id="2" precision="FP32" names="239,240,input.1">
					<dim>1</dim>
					<dim>32</dim>
				</port>
			</output>
		</layer>
		<layer id="252" name="self._model.encoder_latent_input_proj.weight_compressed" type="Const" version="opset1">
			<data element_type="f16" shape="512, 32" offset="25599872" size="32768" />
			<output>
				<port id="0" precision="FP16" names="self._model.encoder_latent_input_proj.weight">
					<dim>512</dim>
					<dim>32</dim>
				</port>
			</output>
		</layer>
		<layer id="253" name="self._model.encoder_latent_input_proj.weight" type="Convert" version="opset1">
			<data destination_type="f32" />
			<rt_info>
				<attribute name="decompression" version="0" />
			</rt_info>
			<input>
				<port id="0" precision="FP16">
					<dim>512</dim>
					<dim>32</dim>
				</port>
			</input>
			<output>
				<port id="1" precision="FP32">
					<dim>512</dim>
					<dim>32</dim>
				</port>
			</output>
		</layer>
		<layer id="254" name="__module._model.encoder_latent_input_proj/aten::linear/MatMul" type="MatMul" version="opset1">
			<data transpose_a="false" transpose_b="true" />
			<input>
				<port id="0" precision="FP32">
					<dim>1</dim>
					<dim>32</dim>
				</port>
				<port id="1" precision="FP32">
					<dim>512</dim>
					<dim>32</dim>
				</port>
			</input>
			<output>
				<port id="2" precision="FP32">
					<dim>1</dim>
					<dim>512</dim>
				</port>
			</output>
		</layer>
		<layer id="255" name="Constant_148873_compressed" type="Const" version="opset1">
			<data element_type="f16" shape="1, 512" offset="25632640" size="1024" />
			<output>
				<port id="0" precision="FP16">
					<dim>1</dim>
					<dim>512</dim>
				</port>
			</output>
		</layer>
		<layer id="256" name="Constant_148873" type="Convert" version="opset1">
			<data destination_type="f32" />
			<rt_info>
				<attribute name="decompression" version="0" />
			</rt_info>
			<input>
				<port id="0" precision="FP16">
					<dim>1</dim>
					<dim>512</dim>
				</port>
			</input>
			<output>
				<port id="1" precision="FP32">
					<dim>1</dim>
					<dim>512</dim>
				</port>
			</output>
		</layer>
		<layer id="257" name="__module._model.encoder_latent_input_proj/aten::linear/Add" type="Add" version="opset1">
			<data auto_broadcast="numpy" />
			<input>
				<port id="0" precision="FP32">
					<dim>1</dim>
					<dim>512</dim>
				</port>
				<port id="1" precision="FP32">
					<dim>1</dim>
					<dim>512</dim>
				</port>
			</input>
			<output>
				<port id="2" precision="FP32" names="243">
					<dim>1</dim>
					<dim>512</dim>
				</port>
			</output>
		</layer>
		<layer id="258" name="__module._model/aten::stack/Constant" type="Const" version="opset1">
			<data element_type="i32" shape="" offset="25633664" size="4" />
			<output>
				<port id="0" precision="I32" />
			</output>
		</layer>
		<layer id="259" name="__module._model/aten::stack/Unsqueeze" type="Unsqueeze" version="opset1">
			<input>
				<port id="0" precision="FP32">
					<dim>1</dim>
					<dim>512</dim>
				</port>
				<port id="1" precision="I32" />
			</input>
			<output>
				<port id="2" precision="FP32">
					<dim>1</dim>
					<dim>1</dim>
					<dim>512</dim>
				</port>
			</output>
		</layer>
		<layer id="260" name="Constant_148862_compressed" type="Const" version="opset1">
			<data element_type="f16" shape="1, 6" offset="25633668" size="12" />
			<output>
				<port id="0" precision="FP16">
					<dim>1</dim>
					<dim>6</dim>
				</port>
			</output>
		</layer>
		<layer id="261" name="Constant_148862" type="Convert" version="opset1">
			<data destination_type="f32" />
			<rt_info>
				<attribute name="decompression" version="0" />
			</rt_info>
			<input>
				<port id="0" precision="FP16">
					<dim>1</dim>
					<dim>6</dim>
				</port>
			</input>
			<output>
				<port id="1" precision="FP32">
					<dim>1</dim>
					<dim>6</dim>
				</port>
			</output>
		</layer>
		<layer id="262" name="__module._input_normalizer/aten::sub/Subtract" type="Add" version="opset1">
			<data auto_broadcast="numpy" />
			<input>
				<port id="0" precision="FP32">
					<dim>1</dim>
					<dim>6</dim>
				</port>
				<port id="1" precision="FP32">
					<dim>1</dim>
					<dim>6</dim>
				</port>
			</input>
			<output>
				<port id="2" precision="FP32" names="45">
					<dim>1</dim>
					<dim>6</dim>
				</port>
			</output>
		</layer>
		<layer id="263" name="Constant_148863_compressed" type="Const" version="opset1">
			<data element_type="f16" shape="1, 6" offset="25633680" size="12" />
			<output>
				<port id="0" precision="FP16">
					<dim>1</dim>
					<dim>6</dim>
				</port>
			</output>
		</layer>
		<layer id="264" name="Constant_148863" type="Convert" version="opset1">
			<data destination_type="f32" />
			<rt_info>
				<attribute name="decompression" version="0" />
			</rt_info>
			<input>
				<port id="0" precision="FP16">
					<dim>1</dim>
					<dim>6</dim>
				</port>
			</input>
			<output>
				<port id="1" precision="FP32">
					<dim>1</dim>
					<dim>6</dim>
				</port>
			</output>
		</layer>
		<layer id="265" name="__module._input_normalizer/aten::div/Divide" type="Divide" version="opset1">
			<data auto_broadcast="numpy" m_pythondiv="true" />
			<input>
				<port id="0" precision="FP32">
					<dim>1</dim>
					<dim>6</dim>
				</port>
				<port id="1" precision="FP32">
					<dim>1</dim>
					<dim>6</dim>
				</port>
			</input>
			<output>
				<port id="2" precision="FP32" names="47,input.3">
					<dim>1</dim>
					<dim>6</dim>
				</port>
			</output>
		</layer>
		<layer id="266" name="self._model.encoder_robot_state_input_proj.weight_compressed" type="Const" version="opset1">
			<data element_type="f16" shape="512, 6" offset="25633692" size="6144" />
			<output>
				<port id="0" precision="FP16" names="self._model.encoder_robot_state_input_proj.weight">
					<dim>512</dim>
					<dim>6</dim>
				</port>
			</output>
		</layer>
		<layer id="267" name="self._model.encoder_robot_state_input_proj.weight" type="Convert" version="opset1">
			<data destination_type="f32" />
			<rt_info>
				<attribute name="decompression" version="0" />
			</rt_info>
			<input>
				<port id="0" precision="FP16">
					<dim>512</dim>
					<dim>6</dim>
				</port>
			</input>
			<output>
				<port id="1" precision="FP32">
					<dim>512</dim>
					<dim>6</dim>
				</port>
			</output>
		</layer>
		<layer id="268" name="__module._model.encoder_robot_state_input_proj/aten::linear/MatMul" type="MatMul" version="opset1">
			<data transpose_a="false" transpose_b="true" />
			<input>
				<port id="0" precision="FP32">
					<dim>1</dim>
					<dim>6</dim>
				</port>
				<port id="1" precision="FP32">
					<dim>512</dim>
					<dim>6</dim>
				</port>
			</input>
			<output>
				<port id="2" precision="FP32">
					<dim>1</dim>
					<dim>512</dim>
				</port>
			</output>
		</layer>
		<layer id="269" name="Constant_148874_compressed" type="Const" version="opset1">
			<data element_type="f16" shape="1, 512" offset="25639836" size="1024" />
			<output>
				<port id="0" precision="FP16">
					<dim>1</dim>
					<dim>512</dim>
				</port>
			</output>
		</layer>
		<layer id="270" name="Constant_148874" type="Convert" version="opset1">
			<data destination_type="f32" />
			<rt_info>
				<attribute name="decompression" version="0" />
			</rt_info>
			<input>
				<port id="0" precision="FP16">
					<dim>1</dim>
					<dim>512</dim>
				</port>
			</input>
			<output>
				<port id="1" precision="FP32">
					<dim>1</dim>
					<dim>512</dim>
				</port>
			</output>
		</layer>
		<layer id="271" name="__module._model.encoder_robot_state_input_proj/aten::linear/Add" type="Add" version="opset1">
			<data auto_broadcast="numpy" />
			<input>
				<port id="0" precision="FP32">
					<dim>1</dim>
					<dim>512</dim>
				</port>
				<port id="1" precision="FP32">
					<dim>1</dim>
					<dim>512</dim>
				</port>
			</input>
			<output>
				<port id="2" precision="FP32" names="249">
					<dim>1</dim>
					<dim>512</dim>
				</port>
			</output>
		</layer>
		<layer id="272" name="__module._model/aten::stack/Unsqueeze_1" type="Unsqueeze" version="opset1">
			<input>
				<port id="0" precision="FP32">
					<dim>1</dim>
					<dim>512</dim>
				</port>
				<port id="1" precision="I32" />
			</input>
			<output>
				<port id="2" precision="FP32">
					<dim>1</dim>
					<dim>1</dim>
					<dim>512</dim>
				</port>
			</output>
		</layer>
		<layer id="273" name="Constant_75280" type="Const" version="opset1">
			<data element_type="i64" shape="4" offset="25640860" size="32" />
			<output>
				<port id="0" precision="I64">
					<dim>4</dim>
				</port>
			</output>
		</layer>
		<layer id="274" name="__module._model/aten::permute/Transpose" type="Transpose" version="opset1">
			<input>
				<port id="0" precision="FP32">
					<dim>1</dim>
					<dim>512</dim>
					<dim>12</dim>
					<dim>12</dim>
				</port>
				<port id="1" precision="I64">
					<dim>4</dim>
				</port>
			</input>
			<output>
				<port id="2" precision="FP32" names="903,x.45">
					<dim>12</dim>
					<dim>12</dim>
					<dim>1</dim>
					<dim>512</dim>
				</port>
			</output>
		</layer>
		<layer id="275" name="Constant_150523" type="Const" version="opset1">
			<data element_type="i64" shape="1" offset="25640892" size="8" />
			<rt_info>
				<attribute name="precise" version="0" />
			</rt_info>
			<output>
				<port id="0" precision="I64">
					<dim>1</dim>
				</port>
			</output>
		</layer>
		<layer id="276" name="Constant_150524" type="Const" version="opset1">
			<data element_type="i64" shape="" offset="22868758" size="8" />
			<rt_info>
				<attribute name="precise" version="0" />
			</rt_info>
			<output>
				<port id="0" precision="I64" />
			</output>
		</layer>
		<layer id="277" name="Gather_150525" type="Gather" version="opset8">
			<data batch_dims="0" />
			<input>
				<port id="0" precision="I64">
					<dim>4</dim>
				</port>
				<port id="1" precision="I64">
					<dim>1</dim>
				</port>
				<port id="2" precision="I64" />
			</input>
			<output>
				<port id="3" precision="I64" names="891,895_1">
					<dim>1</dim>
				</port>
			</output>
		</layer>
		<layer id="278" name="Constant_150527" type="Const" version="opset1">
			<data element_type="i64" shape="1" offset="25640900" size="8" />
			<rt_info>
				<attribute name="precise" version="0" />
			</rt_info>
			<output>
				<port id="0" precision="I64">
					<dim>1</dim>
				</port>
			</output>
		</layer>
		<layer id="279" name="Constant_150528" type="Const" version="opset1">
			<data element_type="i64" shape="" offset="22868758" size="8" />
			<rt_info>
				<attribute name="precise" version="0" />
			</rt_info>
			<output>
				<port id="0" precision="I64" />
			</output>
		</layer>
		<layer id="280" name="Gather_150529" type="Gather" version="opset8">
			<data batch_dims="0" />
			<input>
				<port id="0" precision="I64">
					<dim>4</dim>
				</port>
				<port id="1" precision="I64">
					<dim>1</dim>
				</port>
				<port id="2" precision="I64" />
			</input>
			<output>
				<port id="3" precision="I64" names="893">
					<dim>1</dim>
				</port>
			</output>
		</layer>
		<layer id="281" name="__module._model/aten::mul_/Multiply" type="Multiply" version="opset1">
			<data auto_broadcast="numpy" />
			<input>
				<port id="0" precision="I64">
					<dim>1</dim>
				</port>
				<port id="1" precision="I64">
					<dim>1</dim>
				</port>
			</input>
			<output>
				<port id="2" precision="I64" names="895,897,result.1">
					<dim>1</dim>
				</port>
			</output>
		</layer>
		<layer id="282" name="Constant_75492" type="Const" version="opset1">
			<data element_type="i64" shape="1" offset="22868766" size="8" />
			<rt_info>
				<attribute name="precise" version="0" />
			</rt_info>
			<output>
				<port id="0" precision="I64">
					<dim>1</dim>
				</port>
			</output>
		</layer>
		<layer id="283" name="__module._model/prim::ListConstruct/SequenceMark_2" type="Concat" version="opset1">
			<data axis="0" />
			<input>
				<port id="0" precision="I64">
					<dim>1</dim>
				</port>
				<port id="1" precision="I64">
					<dim>1</dim>
				</port>
				<port id="2" precision="I64">
					<dim>1</dim>
				</port>
			</input>
			<output>
				<port id="3" precision="I64">
					<dim>3</dim>
				</port>
			</output>
		</layer>
		<layer id="284" name="__module._model/aten::reshape/Reshape" type="Reshape" version="opset1">
			<data special_zero="false" />
			<input>
				<port id="0" precision="FP32">
					<dim>12</dim>
					<dim>12</dim>
					<dim>1</dim>
					<dim>512</dim>
				</port>
				<port id="1" precision="I64">
					<dim>3</dim>
				</port>
			</input>
			<output>
				<port id="2" precision="FP32" names="905,cam_features.1">
					<dim>144</dim>
					<dim>1</dim>
					<dim>512</dim>
				</port>
			</output>
		</layer>
		<layer id="285" name="225" type="Const" version="opset1">
			<data element_type="i64" shape="" offset="22868758" size="8" />
			<output>
				<port id="0" precision="I64" names="225" />
			</output>
		</layer>
		<layer id="286" name="__module._model/aten::select/Gather" type="Gather" version="opset8">
			<data batch_dims="0" />
			<input>
				<port id="0" precision="FP32">
					<dim>144</dim>
					<dim>1</dim>
					<dim>512</dim>
				</port>
				<port id="1" precision="I64" />
				<port id="2" precision="I64" />
			</input>
			<output>
				<port id="3" precision="FP32" names="925">
					<dim>1</dim>
					<dim>512</dim>
				</port>
			</output>
		</layer>
		<layer id="287" name="__module._model/aten::stack/Unsqueeze_2" type="Unsqueeze" version="opset1">
			<input>
				<port id="0" precision="FP32">
					<dim>1</dim>
					<dim>512</dim>
				</port>
				<port id="1" precision="I32" />
			</input>
			<output>
				<port id="2" precision="FP32">
					<dim>1</dim>
					<dim>1</dim>
					<dim>512</dim>
				</port>
			</output>
		</layer>
		<layer id="288" name="219" type="Const" version="opset1">
			<data element_type="i64" shape="" offset="25640908" size="8" />
			<output>
				<port id="0" precision="I64" names="219" />
			</output>
		</layer>
		<layer id="289" name="__module._model/aten::select/Gather_1" type="Gather" version="opset8">
			<data batch_dims="0" />
			<input>
				<port id="0" precision="FP32">
					<dim>144</dim>
					<dim>1</dim>
					<dim>512</dim>
				</port>
				<port id="1" precision="I64" />
				<port id="2" precision="I64" />
			</input>
			<output>
				<port id="3" precision="FP32" names="926">
					<dim>1</dim>
					<dim>512</dim>
				</port>
			</output>
		</layer>
		<layer id="290" name="__module._model/aten::stack/Unsqueeze_3" type="Unsqueeze" version="opset1">
			<input>
				<port id="0" precision="FP32">
					<dim>1</dim>
					<dim>512</dim>
				</port>
				<port id="1" precision="I32" />
			</input>
			<output>
				<port id="2" precision="FP32">
					<dim>1</dim>
					<dim>1</dim>
					<dim>512</dim>
				</port>
			</output>
		</layer>
		<layer id="291" name="216" type="Const" version="opset1">
			<data element_type="i64" shape="" offset="25640892" size="8" />
			<output>
				<port id="0" precision="I64" names="216" />
			</output>
		</layer>
		<layer id="292" name="__module._model/aten::select/Gather_2" type="Gather" version="opset8">
			<data batch_dims="0" />
			<input>
				<port id="0" precision="FP32">
					<dim>144</dim>
					<dim>1</dim>
					<dim>512</dim>
				</port>
				<port id="1" precision="I64" />
				<port id="2" precision="I64" />
			</input>
			<output>
				<port id="3" precision="FP32" names="927">
					<dim>1</dim>
					<dim>512</dim>
				</port>
			</output>
		</layer>
		<layer id="293" name="__module._model/aten::stack/Unsqueeze_4" type="Unsqueeze" version="opset1">
			<input>
				<port id="0" precision="FP32">
					<dim>1</dim>
					<dim>512</dim>
				</port>
				<port id="1" precision="I32" />
			</input>
			<output>
				<port id="2" precision="FP32">
					<dim>1</dim>
					<dim>1</dim>
					<dim>512</dim>
				</port>
			</output>
		</layer>
		<layer id="294" name="215" type="Const" version="opset1">
			<data element_type="i64" shape="" offset="25640900" size="8" />
			<output>
				<port id="0" precision="I64" names="215" />
			</output>
		</layer>
		<layer id="295" name="__module._model/aten::select/Gather_3" type="Gather" version="opset8">
			<data batch_dims="0" />
			<input>
				<port id="0" precision="FP32">
					<dim>144</dim>
					<dim>1</dim>
					<dim>512</dim>
				</port>
				<port id="1" precision="I64" />
				<port id="2" precision="I64" />
			</input>
			<output>
				<port id="3" precision="FP32" names="928">
					<dim>1</dim>
					<dim>512</dim>
				</port>
			</output>
		</layer>
		<layer id="296" name="__module._model/aten::stack/Unsqueeze_5" type="Unsqueeze" version="opset1">
			<input>
				<port id="0" precision="FP32">
					<dim>1</dim>
					<dim>512</dim>
				</port>
				<port id="1" precision="I32" />
			</input>
			<output>
				<port id="2" precision="FP32">
					<dim>1</dim>
					<dim>1</dim>
					<dim>512</dim>
				</port>
			</output>
		</layer>
		<layer id="297" name="205" type="Const" version="opset1">
			<data element_type="i64" shape="" offset="25640916" size="8" />
			<output>
				<port id="0" precision="I64" names="205" />
			</output>
		</layer>
		<layer id="298" name="__module._model/aten::select/Gather_4" type="Gather" version="opset8">
			<data batch_dims="0" />
			<input>
				<port id="0" precision="FP32">
					<dim>144</dim>
					<dim>1</dim>
					<dim>512</dim>
				</port>
				<port id="1" precision="I64" />
				<port id="2" precision="I64" />
			</input>
			<output>
				<port id="3" precision="FP32" names="929">
					<dim>1</dim>
					<dim>512</dim>
				</port>
			</output>
		</layer>
		<layer id="299" name="__module._model/aten::stack/Unsqueeze_6" type="Unsqueeze" version="opset1">
			<input>
				<port id="0" precision="FP32">
					<dim>1</dim>
					<dim>512</dim>
				</port>
				<port id="1" precision="I32" />
			</input>
			<output>
				<port id="2" precision="FP32">
					<dim>1</dim>
					<dim>1</dim>
					<dim>512</dim>
				</port>
			</output>
		</layer>
		<layer id="300" name="204" type="Const" version="opset1">
			<data element_type="i64" shape="" offset="25640924" size="8" />
			<output>
				<port id="0" precision="I64" names="204" />
			</output>
		</layer>
		<layer id="301" name="__module._model/aten::select/Gather_5" type="Gather" version="opset8">
			<data batch_dims="0" />
			<input>
				<port id="0" precision="FP32">
					<dim>144</dim>
					<dim>1</dim>
					<dim>512</dim>
				</port>
				<port id="1" precision="I64" />
				<port id="2" precision="I64" />
			</input>
			<output>
				<port id="3" precision="FP32" names="930">
					<dim>1</dim>
					<dim>512</dim>
				</port>
			</output>
		</layer>
		<layer id="302" name="__module._model/aten::stack/Unsqueeze_7" type="Unsqueeze" version="opset1">
			<input>
				<port id="0" precision="FP32">
					<dim>1</dim>
					<dim>512</dim>
				</port>
				<port id="1" precision="I32" />
			</input>
			<output>
				<port id="2" precision="FP32">
					<dim>1</dim>
					<dim>1</dim>
					<dim>512</dim>
				</port>
			</output>
		</layer>
		<layer id="303" name="223" type="Const" version="opset1">
			<data element_type="i64" shape="" offset="25640932" size="8" />
			<output>
				<port id="0" precision="I64" names="223" />
			</output>
		</layer>
		<layer id="304" name="__module._model/aten::select/Gather_6" type="Gather" version="opset8">
			<data batch_dims="0" />
			<input>
				<port id="0" precision="FP32">
					<dim>144</dim>
					<dim>1</dim>
					<dim>512</dim>
				</port>
				<port id="1" precision="I64" />
				<port id="2" precision="I64" />
			</input>
			<output>
				<port id="3" precision="FP32" names="931">
					<dim>1</dim>
					<dim>512</dim>
				</port>
			</output>
		</layer>
		<layer id="305" name="__module._model/aten::stack/Unsqueeze_8" type="Unsqueeze" version="opset1">
			<input>
				<port id="0" precision="FP32">
					<dim>1</dim>
					<dim>512</dim>
				</port>
				<port id="1" precision="I32" />
			</input>
			<output>
				<port id="2" precision="FP32">
					<dim>1</dim>
					<dim>1</dim>
					<dim>512</dim>
				</port>
			</output>
		</layer>
		<layer id="306" name="203" type="Const" version="opset1">
			<data element_type="i64" shape="" offset="25640940" size="8" />
			<output>
				<port id="0" precision="I64" names="203" />
			</output>
		</layer>
		<layer id="307" name="__module._model/aten::select/Gather_7" type="Gather" version="opset8">
			<data batch_dims="0" />
			<input>
				<port id="0" precision="FP32">
					<dim>144</dim>
					<dim>1</dim>
					<dim>512</dim>
				</port>
				<port id="1" precision="I64" />
				<port id="2" precision="I64" />
			</input>
			<output>
				<port id="3" precision="FP32" names="932">
					<dim>1</dim>
					<dim>512</dim>
				</port>
			</output>
		</layer>
		<layer id="308" name="__module._model/aten::stack/Unsqueeze_9" type="Unsqueeze" version="opset1">
			<input>
				<port id="0" precision="FP32">
					<dim>1</dim>
					<dim>512</dim>
				</port>
				<port id="1" precision="I32" />
			</input>
			<output>
				<port id="2" precision="FP32">
					<dim>1</dim>
					<dim>1</dim>
					<dim>512</dim>
				</port>
			</output>
		</layer>
		<layer id="309" name="202" type="Const" version="opset1">
			<data element_type="i64" shape="" offset="25640948" size="8" />
			<output>
				<port id="0" precision="I64" names="202" />
			</output>
		</layer>
		<layer id="310" name="__module._model/aten::select/Gather_8" type="Gather" version="opset8">
			<data batch_dims="0" />
			<input>
				<port id="0" precision="FP32">
					<dim>144</dim>
					<dim>1</dim>
					<dim>512</dim>
				</port>
				<port id="1" precision="I64" />
				<port id="2" precision="I64" />
			</input>
			<output>
				<port id="3" precision="FP32" names="933">
					<dim>1</dim>
					<dim>512</dim>
				</port>
			</output>
		</layer>
		<layer id="311" name="__module._model/aten::stack/Unsqueeze_10" type="Unsqueeze" version="opset1">
			<input>
				<port id="0" precision="FP32">
					<dim>1</dim>
					<dim>512</dim>
				</port>
				<port id="1" precision="I32" />
			</input>
			<output>
				<port id="2" precision="FP32">
					<dim>1</dim>
					<dim>1</dim>
					<dim>512</dim>
				</port>
			</output>
		</layer>
		<layer id="312" name="201" type="Const" version="opset1">
			<data element_type="i64" shape="" offset="25640956" size="8" />
			<output>
				<port id="0" precision="I64" names="201" />
			</output>
		</layer>
		<layer id="313" name="__module._model/aten::select/Gather_9" type="Gather" version="opset8">
			<data batch_dims="0" />
			<input>
				<port id="0" precision="FP32">
					<dim>144</dim>
					<dim>1</dim>
					<dim>512</dim>
				</port>
				<port id="1" precision="I64" />
				<port id="2" precision="I64" />
			</input>
			<output>
				<port id="3" precision="FP32" names="934">
					<dim>1</dim>
					<dim>512</dim>
				</port>
			</output>
		</layer>
		<layer id="314" name="__module._model/aten::stack/Unsqueeze_11" type="Unsqueeze" version="opset1">
			<input>
				<port id="0" precision="FP32">
					<dim>1</dim>
					<dim>512</dim>
				</port>
				<port id="1" precision="I32" />
			</input>
			<output>
				<port id="2" precision="FP32">
					<dim>1</dim>
					<dim>1</dim>
					<dim>512</dim>
				</port>
			</output>
		</layer>
		<layer id="315" name="200" type="Const" version="opset1">
			<data element_type="i64" shape="" offset="25640964" size="8" />
			<output>
				<port id="0" precision="I64" names="200" />
			</output>
		</layer>
		<layer id="316" name="__module._model/aten::select/Gather_10" type="Gather" version="opset8">
			<data batch_dims="0" />
			<input>
				<port id="0" precision="FP32">
					<dim>144</dim>
					<dim>1</dim>
					<dim>512</dim>
				</port>
				<port id="1" precision="I64" />
				<port id="2" precision="I64" />
			</input>
			<output>
				<port id="3" precision="FP32" names="935">
					<dim>1</dim>
					<dim>512</dim>
				</port>
			</output>
		</layer>
		<layer id="317" name="__module._model/aten::stack/Unsqueeze_12" type="Unsqueeze" version="opset1">
			<input>
				<port id="0" precision="FP32">
					<dim>1</dim>
					<dim>512</dim>
				</port>
				<port id="1" precision="I32" />
			</input>
			<output>
				<port id="2" precision="FP32">
					<dim>1</dim>
					<dim>1</dim>
					<dim>512</dim>
				</port>
			</output>
		</layer>
		<layer id="318" name="199" type="Const" version="opset1">
			<data element_type="i64" shape="" offset="25640972" size="8" />
			<output>
				<port id="0" precision="I64" names="199" />
			</output>
		</layer>
		<layer id="319" name="__module._model/aten::select/Gather_11" type="Gather" version="opset8">
			<data batch_dims="0" />
			<input>
				<port id="0" precision="FP32">
					<dim>144</dim>
					<dim>1</dim>
					<dim>512</dim>
				</port>
				<port id="1" precision="I64" />
				<port id="2" precision="I64" />
			</input>
			<output>
				<port id="3" precision="FP32" names="936">
					<dim>1</dim>
					<dim>512</dim>
				</port>
			</output>
		</layer>
		<layer id="320" name="__module._model/aten::stack/Unsqueeze_13" type="Unsqueeze" version="opset1">
			<input>
				<port id="0" precision="FP32">
					<dim>1</dim>
					<dim>512</dim>
				</port>
				<port id="1" precision="I32" />
			</input>
			<output>
				<port id="2" precision="FP32">
					<dim>1</dim>
					<dim>1</dim>
					<dim>512</dim>
				</port>
			</output>
		</layer>
		<layer id="321" name="198" type="Const" version="opset1">
			<data element_type="i64" shape="" offset="25640980" size="8" />
			<output>
				<port id="0" precision="I64" names="198" />
			</output>
		</layer>
		<layer id="322" name="__module._model/aten::select/Gather_12" type="Gather" version="opset8">
			<data batch_dims="0" />
			<input>
				<port id="0" precision="FP32">
					<dim>144</dim>
					<dim>1</dim>
					<dim>512</dim>
				</port>
				<port id="1" precision="I64" />
				<port id="2" precision="I64" />
			</input>
			<output>
				<port id="3" precision="FP32" names="937">
					<dim>1</dim>
					<dim>512</dim>
				</port>
			</output>
		</layer>
		<layer id="323" name="__module._model/aten::stack/Unsqueeze_14" type="Unsqueeze" version="opset1">
			<input>
				<port id="0" precision="FP32">
					<dim>1</dim>
					<dim>512</dim>
				</port>
				<port id="1" precision="I32" />
			</input>
			<output>
				<port id="2" precision="FP32">
					<dim>1</dim>
					<dim>1</dim>
					<dim>512</dim>
				</port>
			</output>
		</layer>
		<layer id="324" name="197" type="Const" version="opset1">
			<data element_type="i64" shape="" offset="25640988" size="8" />
			<output>
				<port id="0" precision="I64" names="197" />
			</output>
		</layer>
		<layer id="325" name="__module._model/aten::select/Gather_13" type="Gather" version="opset8">
			<data batch_dims="0" />
			<input>
				<port id="0" precision="FP32">
					<dim>144</dim>
					<dim>1</dim>
					<dim>512</dim>
				</port>
				<port id="1" precision="I64" />
				<port id="2" precision="I64" />
			</input>
			<output>
				<port id="3" precision="FP32" names="938">
					<dim>1</dim>
					<dim>512</dim>
				</port>
			</output>
		</layer>
		<layer id="326" name="__module._model/aten::stack/Unsqueeze_15" type="Unsqueeze" version="opset1">
			<input>
				<port id="0" precision="FP32">
					<dim>1</dim>
					<dim>512</dim>
				</port>
				<port id="1" precision="I32" />
			</input>
			<output>
				<port id="2" precision="FP32">
					<dim>1</dim>
					<dim>1</dim>
					<dim>512</dim>
				</port>
			</output>
		</layer>
		<layer id="327" name="196" type="Const" version="opset1">
			<data element_type="i64" shape="" offset="25640996" size="8" />
			<output>
				<port id="0" precision="I64" names="196" />
			</output>
		</layer>
		<layer id="328" name="__module._model/aten::select/Gather_14" type="Gather" version="opset8">
			<data batch_dims="0" />
			<input>
				<port id="0" precision="FP32">
					<dim>144</dim>
					<dim>1</dim>
					<dim>512</dim>
				</port>
				<port id="1" precision="I64" />
				<port id="2" precision="I64" />
			</input>
			<output>
				<port id="3" precision="FP32" names="939">
					<dim>1</dim>
					<dim>512</dim>
				</port>
			</output>
		</layer>
		<layer id="329" name="__module._model/aten::stack/Unsqueeze_16" type="Unsqueeze" version="opset1">
			<input>
				<port id="0" precision="FP32">
					<dim>1</dim>
					<dim>512</dim>
				</port>
				<port id="1" precision="I32" />
			</input>
			<output>
				<port id="2" precision="FP32">
					<dim>1</dim>
					<dim>1</dim>
					<dim>512</dim>
				</port>
			</output>
		</layer>
		<layer id="330" name="195" type="Const" version="opset1">
			<data element_type="i64" shape="" offset="25641004" size="8" />
			<output>
				<port id="0" precision="I64" names="195" />
			</output>
		</layer>
		<layer id="331" name="__module._model/aten::select/Gather_15" type="Gather" version="opset8">
			<data batch_dims="0" />
			<input>
				<port id="0" precision="FP32">
					<dim>144</dim>
					<dim>1</dim>
					<dim>512</dim>
				</port>
				<port id="1" precision="I64" />
				<port id="2" precision="I64" />
			</input>
			<output>
				<port id="3" precision="FP32" names="940">
					<dim>1</dim>
					<dim>512</dim>
				</port>
			</output>
		</layer>
		<layer id="332" name="__module._model/aten::stack/Unsqueeze_17" type="Unsqueeze" version="opset1">
			<input>
				<port id="0" precision="FP32">
					<dim>1</dim>
					<dim>512</dim>
				</port>
				<port id="1" precision="I32" />
			</input>
			<output>
				<port id="2" precision="FP32">
					<dim>1</dim>
					<dim>1</dim>
					<dim>512</dim>
				</port>
			</output>
		</layer>
		<layer id="333" name="194" type="Const" version="opset1">
			<data element_type="i64" shape="" offset="25641012" size="8" />
			<output>
				<port id="0" precision="I64" names="194" />
			</output>
		</layer>
		<layer id="334" name="__module._model/aten::select/Gather_16" type="Gather" version="opset8">
			<data batch_dims="0" />
			<input>
				<port id="0" precision="FP32">
					<dim>144</dim>
					<dim>1</dim>
					<dim>512</dim>
				</port>
				<port id="1" precision="I64" />
				<port id="2" precision="I64" />
			</input>
			<output>
				<port id="3" precision="FP32" names="941">
					<dim>1</dim>
					<dim>512</dim>
				</port>
			</output>
		</layer>
		<layer id="335" name="__module._model/aten::stack/Unsqueeze_18" type="Unsqueeze" version="opset1">
			<input>
				<port id="0" precision="FP32">
					<dim>1</dim>
					<dim>512</dim>
				</port>
				<port id="1" precision="I32" />
			</input>
			<output>
				<port id="2" precision="FP32">
					<dim>1</dim>
					<dim>1</dim>
					<dim>512</dim>
				</port>
			</output>
		</layer>
		<layer id="336" name="193" type="Const" version="opset1">
			<data element_type="i64" shape="" offset="25641020" size="8" />
			<output>
				<port id="0" precision="I64" names="193" />
			</output>
		</layer>
		<layer id="337" name="__module._model/aten::select/Gather_17" type="Gather" version="opset8">
			<data batch_dims="0" />
			<input>
				<port id="0" precision="FP32">
					<dim>144</dim>
					<dim>1</dim>
					<dim>512</dim>
				</port>
				<port id="1" precision="I64" />
				<port id="2" precision="I64" />
			</input>
			<output>
				<port id="3" precision="FP32" names="942">
					<dim>1</dim>
					<dim>512</dim>
				</port>
			</output>
		</layer>
		<layer id="338" name="__module._model/aten::stack/Unsqueeze_19" type="Unsqueeze" version="opset1">
			<input>
				<port id="0" precision="FP32">
					<dim>1</dim>
					<dim>512</dim>
				</port>
				<port id="1" precision="I32" />
			</input>
			<output>
				<port id="2" precision="FP32">
					<dim>1</dim>
					<dim>1</dim>
					<dim>512</dim>
				</port>
			</output>
		</layer>
		<layer id="339" name="192" type="Const" version="opset1">
			<data element_type="i64" shape="" offset="25641028" size="8" />
			<output>
				<port id="0" precision="I64" names="192" />
			</output>
		</layer>
		<layer id="340" name="__module._model/aten::select/Gather_18" type="Gather" version="opset8">
			<data batch_dims="0" />
			<input>
				<port id="0" precision="FP32">
					<dim>144</dim>
					<dim>1</dim>
					<dim>512</dim>
				</port>
				<port id="1" precision="I64" />
				<port id="2" precision="I64" />
			</input>
			<output>
				<port id="3" precision="FP32" names="943">
					<dim>1</dim>
					<dim>512</dim>
				</port>
			</output>
		</layer>
		<layer id="341" name="__module._model/aten::stack/Unsqueeze_20" type="Unsqueeze" version="opset1">
			<input>
				<port id="0" precision="FP32">
					<dim>1</dim>
					<dim>512</dim>
				</port>
				<port id="1" precision="I32" />
			</input>
			<output>
				<port id="2" precision="FP32">
					<dim>1</dim>
					<dim>1</dim>
					<dim>512</dim>
				</port>
			</output>
		</layer>
		<layer id="342" name="191" type="Const" version="opset1">
			<data element_type="i64" shape="" offset="25641036" size="8" />
			<output>
				<port id="0" precision="I64" names="191" />
			</output>
		</layer>
		<layer id="343" name="__module._model/aten::select/Gather_19" type="Gather" version="opset8">
			<data batch_dims="0" />
			<input>
				<port id="0" precision="FP32">
					<dim>144</dim>
					<dim>1</dim>
					<dim>512</dim>
				</port>
				<port id="1" precision="I64" />
				<port id="2" precision="I64" />
			</input>
			<output>
				<port id="3" precision="FP32" names="944">
					<dim>1</dim>
					<dim>512</dim>
				</port>
			</output>
		</layer>
		<layer id="344" name="__module._model/aten::stack/Unsqueeze_21" type="Unsqueeze" version="opset1">
			<input>
				<port id="0" precision="FP32">
					<dim>1</dim>
					<dim>512</dim>
				</port>
				<port id="1" precision="I32" />
			</input>
			<output>
				<port id="2" precision="FP32">
					<dim>1</dim>
					<dim>1</dim>
					<dim>512</dim>
				</port>
			</output>
		</layer>
		<layer id="345" name="190" type="Const" version="opset1">
			<data element_type="i64" shape="" offset="25641044" size="8" />
			<output>
…
		<edge from-layer="3309" from-port="3" to-layer="3310" to-port="0" />
		<edge from-layer="3310" from-port="2" to-layer="3579" to-port="443" />
		<edge from-layer="3311" from-port="3" to-layer="3312" to-port="0" />
		<edge from-layer="3312" from-port="2" to-layer="3579" to-port="444" />
		<edge from-layer="3313" from-port="3" to-layer="3314" to-port="0" />
		<edge from-layer="3314" from-port="2" to-layer="3579" to-port="445" />
		<edge from-layer="3315" from-port="3" to-layer="3316" to-port="0" />
		<edge from-layer="3316" from-port="2" to-layer="3579" to-port="446" />
		<edge from-layer="3317" from-port="3" to-layer="3318" to-port="0" />
		<edge from-layer="3318" from-port="2" to-layer="3579" to-port="447" />
		<edge from-layer="3319" from-port="3" to-layer="3320" to-port="0" />
		<edge from-layer="3320" from-port="2" to-layer="3579" to-port="448" />
		<edge from-layer="3321" from-port="3" to-layer="3322" to-port="0" />
		<edge from-layer="3322" from-port="2" to-layer="3579" to-port="449" />
		<edge from-layer="3323" from-port="3" to-layer="3324" to-port="0" />
		<edge from-layer="3324" from-port="2" to-layer="3579" to-port="450" />
		<edge from-layer="3325" from-port="3" to-layer="3326" to-port="0" />
		<edge from-layer="3326" from-port="2" to-layer="3579" to-port="451" />
		<edge from-layer="3327" from-port="3" to-layer="3328" to-port="0" />
		<edge from-layer="3328" from-port="2" to-layer="3579" to-port="452" />
		<edge from-layer="3329" from-port="3" to-layer="3330" to-port="0" />
		<edge from-layer="3330" from-port="2" to-layer="3579" to-port="453" />
		<edge from-layer="3331" from-port="3" to-layer="3332" to-port="0" />
		<edge from-layer="3332" from-port="2" to-layer="3579" to-port="454" />
		<edge from-layer="3333" from-port="3" to-layer="3334" to-port="0" />
		<edge from-layer="3334" from-port="2" to-layer="3579" to-port="455" />
		<edge from-layer="3335" from-port="3" to-layer="3336" to-port="0" />
		<edge from-layer="3336" from-port="2" to-layer="3579" to-port="456" />
		<edge from-layer="3337" from-port="3" to-layer="3338" to-port="0" />
		<edge from-layer="3338" from-port="2" to-layer="3579" to-port="457" />
		<edge from-layer="3339" from-port="3" to-layer="3340" to-port="0" />
		<edge from-layer="3340" from-port="2" to-layer="3579" to-port="458" />
		<edge from-layer="3341" from-port="3" to-layer="3342" to-port="0" />
		<edge from-layer="3342" from-port="2" to-layer="3579" to-port="459" />
		<edge from-layer="3343" from-port="3" to-layer="3344" to-port="0" />
		<edge from-layer="3344" from-port="2" to-layer="3579" to-port="460" />
		<edge from-layer="3345" from-port="3" to-layer="3346" to-port="0" />
		<edge from-layer="3346" from-port="2" to-layer="3579" to-port="461" />
		<edge from-layer="3347" from-port="3" to-layer="3348" to-port="0" />
		<edge from-layer="3348" from-port="2" to-layer="3579" to-port="462" />
		<edge from-layer="3349" from-port="3" to-layer="3350" to-port="0" />
		<edge from-layer="3350" from-port="2" to-layer="3579" to-port="463" />
		<edge from-layer="3351" from-port="3" to-layer="3352" to-port="0" />
		<edge from-layer="3352" from-port="2" to-layer="3579" to-port="464" />
		<edge from-layer="3353" from-port="3" to-layer="3354" to-port="0" />
		<edge from-layer="3354" from-port="2" to-layer="3579" to-port="465" />
		<edge from-layer="3355" from-port="3" to-layer="3356" to-port="0" />
		<edge from-layer="3356" from-port="2" to-layer="3579" to-port="466" />
		<edge from-layer="3357" from-port="3" to-layer="3358" to-port="0" />
		<edge from-layer="3358" from-port="2" to-layer="3579" to-port="467" />
		<edge from-layer="3359" from-port="3" to-layer="3360" to-port="0" />
		<edge from-layer="3360" from-port="2" to-layer="3579" to-port="468" />
		<edge from-layer="3361" from-port="3" to-layer="3362" to-port="0" />
		<edge from-layer="3362" from-port="2" to-layer="3579" to-port="469" />
		<edge from-layer="3363" from-port="3" to-layer="3364" to-port="0" />
		<edge from-layer="3364" from-port="2" to-layer="3579" to-port="470" />
		<edge from-layer="3365" from-port="3" to-layer="3366" to-port="0" />
		<edge from-layer="3366" from-port="2" to-layer="3579" to-port="471" />
		<edge from-layer="3367" from-port="3" to-layer="3368" to-port="0" />
		<edge from-layer="3368" from-port="2" to-layer="3579" to-port="472" />
		<edge from-layer="3369" from-port="3" to-layer="3370" to-port="0" />
		<edge from-layer="3370" from-port="2" to-layer="3579" to-port="473" />
		<edge from-layer="3371" from-port="3" to-layer="3372" to-port="0" />
		<edge from-layer="3372" from-port="2" to-layer="3579" to-port="474" />
		<edge from-layer="3373" from-port="3" to-layer="3374" to-port="0" />
		<edge from-layer="3374" from-port="2" to-layer="3579" to-port="475" />
		<edge from-layer="3375" from-port="3" to-layer="3376" to-port="0" />
		<edge from-layer="3376" from-port="2" to-layer="3579" to-port="476" />
		<edge from-layer="3377" from-port="3" to-layer="3378" to-port="0" />
		<edge from-layer="3378" from-port="2" to-layer="3579" to-port="477" />
		<edge from-layer="3379" from-port="3" to-layer="3380" to-port="0" />
		<edge from-layer="3380" from-port="2" to-layer="3579" to-port="478" />
		<edge from-layer="3381" from-port="3" to-layer="3382" to-port="0" />
		<edge from-layer="3382" from-port="2" to-layer="3579" to-port="479" />
		<edge from-layer="3383" from-port="3" to-layer="3384" to-port="0" />
		<edge from-layer="3384" from-port="2" to-layer="3579" to-port="480" />
		<edge from-layer="3385" from-port="3" to-layer="3386" to-port="0" />
		<edge from-layer="3386" from-port="2" to-layer="3579" to-port="481" />
		<edge from-layer="3387" from-port="3" to-layer="3388" to-port="0" />
		<edge from-layer="3388" from-port="2" to-layer="3579" to-port="482" />
		<edge from-layer="3389" from-port="3" to-layer="3390" to-port="0" />
		<edge from-layer="3390" from-port="2" to-layer="3579" to-port="483" />
		<edge from-layer="3391" from-port="3" to-layer="3392" to-port="0" />
		<edge from-layer="3392" from-port="2" to-layer="3579" to-port="484" />
		<edge from-layer="3393" from-port="3" to-layer="3394" to-port="0" />
		<edge from-layer="3394" from-port="2" to-layer="3579" to-port="485" />
		<edge from-layer="3395" from-port="3" to-layer="3396" to-port="0" />
		<edge from-layer="3396" from-port="2" to-layer="3579" to-port="486" />
		<edge from-layer="3397" from-port="3" to-layer="3398" to-port="0" />
		<edge from-layer="3398" from-port="2" to-layer="3579" to-port="487" />
		<edge from-layer="3399" from-port="3" to-layer="3400" to-port="0" />
		<edge from-layer="3400" from-port="2" to-layer="3579" to-port="488" />
		<edge from-layer="3401" from-port="3" to-layer="3402" to-port="0" />
		<edge from-layer="3402" from-port="2" to-layer="3579" to-port="489" />
		<edge from-layer="3403" from-port="3" to-layer="3404" to-port="0" />
		<edge from-layer="3404" from-port="2" to-layer="3579" to-port="490" />
		<edge from-layer="3405" from-port="3" to-layer="3406" to-port="0" />
		<edge from-layer="3406" from-port="2" to-layer="3579" to-port="491" />
		<edge from-layer="3407" from-port="3" to-layer="3408" to-port="0" />
		<edge from-layer="3408" from-port="2" to-layer="3579" to-port="492" />
		<edge from-layer="3409" from-port="3" to-layer="3410" to-port="0" />
		<edge from-layer="3410" from-port="2" to-layer="3579" to-port="493" />
		<edge from-layer="3411" from-port="3" to-layer="3412" to-port="0" />
		<edge from-layer="3412" from-port="2" to-layer="3579" to-port="494" />
		<edge from-layer="3413" from-port="3" to-layer="3414" to-port="0" />
		<edge from-layer="3414" from-port="2" to-layer="3579" to-port="495" />
		<edge from-layer="3415" from-port="3" to-layer="3416" to-port="0" />
		<edge from-layer="3416" from-port="2" to-layer="3579" to-port="496" />
		<edge from-layer="3417" from-port="3" to-layer="3418" to-port="0" />
		<edge from-layer="3418" from-port="2" to-layer="3579" to-port="497" />
		<edge from-layer="3419" from-port="3" to-layer="3420" to-port="0" />
		<edge from-layer="3420" from-port="2" to-layer="3579" to-port="498" />
		<edge from-layer="3421" from-port="3" to-layer="3422" to-port="0" />
		<edge from-layer="3422" from-port="2" to-layer="3579" to-port="499" />
		<edge from-layer="3423" from-port="3" to-layer="3424" to-port="0" />
		<edge from-layer="3424" from-port="2" to-layer="3579" to-port="500" />
		<edge from-layer="3425" from-port="3" to-layer="3426" to-port="0" />
		<edge from-layer="3426" from-port="2" to-layer="3579" to-port="501" />
		<edge from-layer="3427" from-port="3" to-layer="3428" to-port="0" />
		<edge from-layer="3428" from-port="2" to-layer="3579" to-port="502" />
		<edge from-layer="3429" from-port="3" to-layer="3430" to-port="0" />
		<edge from-layer="3430" from-port="2" to-layer="3579" to-port="503" />
		<edge from-layer="3431" from-port="3" to-layer="3432" to-port="0" />
		<edge from-layer="3432" from-port="2" to-layer="3579" to-port="504" />
		<edge from-layer="3433" from-port="3" to-layer="3434" to-port="0" />
		<edge from-layer="3434" from-port="2" to-layer="3579" to-port="505" />
		<edge from-layer="3435" from-port="3" to-layer="3436" to-port="0" />
		<edge from-layer="3436" from-port="2" to-layer="3579" to-port="506" />
		<edge from-layer="3437" from-port="3" to-layer="3438" to-port="0" />
		<edge from-layer="3438" from-port="2" to-layer="3579" to-port="507" />
		<edge from-layer="3439" from-port="3" to-layer="3440" to-port="0" />
		<edge from-layer="3440" from-port="2" to-layer="3579" to-port="508" />
		<edge from-layer="3441" from-port="3" to-layer="3442" to-port="0" />
		<edge from-layer="3442" from-port="2" to-layer="3579" to-port="509" />
		<edge from-layer="3443" from-port="3" to-layer="3444" to-port="0" />
		<edge from-layer="3444" from-port="2" to-layer="3579" to-port="510" />
		<edge from-layer="3445" from-port="3" to-layer="3446" to-port="0" />
		<edge from-layer="3446" from-port="2" to-layer="3579" to-port="511" />
		<edge from-layer="3447" from-port="3" to-layer="3448" to-port="0" />
		<edge from-layer="3448" from-port="2" to-layer="3579" to-port="512" />
		<edge from-layer="3449" from-port="3" to-layer="3450" to-port="0" />
		<edge from-layer="3450" from-port="2" to-layer="3579" to-port="513" />
		<edge from-layer="3451" from-port="3" to-layer="3452" to-port="0" />
		<edge from-layer="3452" from-port="2" to-layer="3579" to-port="514" />
		<edge from-layer="3453" from-port="3" to-layer="3454" to-port="0" />
		<edge from-layer="3454" from-port="2" to-layer="3579" to-port="515" />
		<edge from-layer="3455" from-port="3" to-layer="3456" to-port="0" />
		<edge from-layer="3456" from-port="2" to-layer="3579" to-port="516" />
		<edge from-layer="3457" from-port="3" to-layer="3458" to-port="0" />
		<edge from-layer="3458" from-port="2" to-layer="3579" to-port="517" />
		<edge from-layer="3459" from-port="3" to-layer="3460" to-port="0" />
		<edge from-layer="3460" from-port="2" to-layer="3579" to-port="518" />
		<edge from-layer="3461" from-port="3" to-layer="3462" to-port="0" />
		<edge from-layer="3462" from-port="2" to-layer="3579" to-port="519" />
		<edge from-layer="3463" from-port="3" to-layer="3464" to-port="0" />
		<edge from-layer="3464" from-port="2" to-layer="3579" to-port="520" />
		<edge from-layer="3465" from-port="3" to-layer="3466" to-port="0" />
		<edge from-layer="3466" from-port="2" to-layer="3579" to-port="521" />
		<edge from-layer="3467" from-port="3" to-layer="3468" to-port="0" />
		<edge from-layer="3468" from-port="2" to-layer="3579" to-port="522" />
		<edge from-layer="3469" from-port="3" to-layer="3470" to-port="0" />
		<edge from-layer="3470" from-port="2" to-layer="3579" to-port="523" />
		<edge from-layer="3471" from-port="3" to-layer="3472" to-port="0" />
		<edge from-layer="3472" from-port="2" to-layer="3579" to-port="524" />
		<edge from-layer="3473" from-port="3" to-layer="3474" to-port="0" />
		<edge from-layer="3474" from-port="2" to-layer="3579" to-port="525" />
		<edge from-layer="3475" from-port="3" to-layer="3476" to-port="0" />
		<edge from-layer="3476" from-port="2" to-layer="3579" to-port="526" />
		<edge from-layer="3477" from-port="3" to-layer="3478" to-port="0" />
		<edge from-layer="3478" from-port="2" to-layer="3579" to-port="527" />
		<edge from-layer="3479" from-port="3" to-layer="3480" to-port="0" />
		<edge from-layer="3480" from-port="2" to-layer="3579" to-port="528" />
		<edge from-layer="3481" from-port="3" to-layer="3482" to-port="0" />
		<edge from-layer="3482" from-port="2" to-layer="3579" to-port="529" />
		<edge from-layer="3483" from-port="3" to-layer="3484" to-port="0" />
		<edge from-layer="3484" from-port="2" to-layer="3579" to-port="530" />
		<edge from-layer="3485" from-port="3" to-layer="3486" to-port="0" />
		<edge from-layer="3486" from-port="2" to-layer="3579" to-port="531" />
		<edge from-layer="3487" from-port="3" to-layer="3488" to-port="0" />
		<edge from-layer="3488" from-port="2" to-layer="3579" to-port="532" />
		<edge from-layer="3489" from-port="3" to-layer="3490" to-port="0" />
		<edge from-layer="3490" from-port="2" to-layer="3579" to-port="533" />
		<edge from-layer="3491" from-port="3" to-layer="3492" to-port="0" />
		<edge from-layer="3492" from-port="2" to-layer="3579" to-port="534" />
		<edge from-layer="3493" from-port="3" to-layer="3494" to-port="0" />
		<edge from-layer="3494" from-port="2" to-layer="3579" to-port="535" />
		<edge from-layer="3495" from-port="3" to-layer="3496" to-port="0" />
		<edge from-layer="3496" from-port="2" to-layer="3579" to-port="536" />
		<edge from-layer="3497" from-port="3" to-layer="3498" to-port="0" />
		<edge from-layer="3498" from-port="2" to-layer="3579" to-port="537" />
		<edge from-layer="3499" from-port="3" to-layer="3500" to-port="0" />
		<edge from-layer="3500" from-port="2" to-layer="3579" to-port="538" />
		<edge from-layer="3501" from-port="3" to-layer="3502" to-port="0" />
		<edge from-layer="3502" from-port="2" to-layer="3579" to-port="539" />
		<edge from-layer="3503" from-port="3" to-layer="3504" to-port="0" />
		<edge from-layer="3504" from-port="2" to-layer="3579" to-port="540" />
		<edge from-layer="3505" from-port="3" to-layer="3506" to-port="0" />
		<edge from-layer="3506" from-port="2" to-layer="3579" to-port="541" />
		<edge from-layer="3507" from-port="3" to-layer="3508" to-port="0" />
		<edge from-layer="3508" from-port="2" to-layer="3579" to-port="542" />
		<edge from-layer="3509" from-port="3" to-layer="3510" to-port="0" />
		<edge from-layer="3510" from-port="2" to-layer="3579" to-port="543" />
		<edge from-layer="3511" from-port="3" to-layer="3512" to-port="0" />
		<edge from-layer="3512" from-port="2" to-layer="3579" to-port="544" />
		<edge from-layer="3513" from-port="3" to-layer="3514" to-port="0" />
		<edge from-layer="3514" from-port="2" to-layer="3579" to-port="545" />
		<edge from-layer="3515" from-port="3" to-layer="3516" to-port="0" />
		<edge from-layer="3516" from-port="2" to-layer="3579" to-port="546" />
		<edge from-layer="3517" from-port="3" to-layer="3518" to-port="0" />
		<edge from-layer="3518" from-port="2" to-layer="3579" to-port="547" />
		<edge from-layer="3519" from-port="3" to-layer="3520" to-port="0" />
		<edge from-layer="3520" from-port="2" to-layer="3579" to-port="548" />
		<edge from-layer="3521" from-port="3" to-layer="3522" to-port="0" />
		<edge from-layer="3522" from-port="2" to-layer="3579" to-port="549" />
		<edge from-layer="3523" from-port="3" to-layer="3524" to-port="0" />
		<edge from-layer="3524" from-port="2" to-layer="3579" to-port="550" />
		<edge from-layer="3525" from-port="3" to-layer="3526" to-port="0" />
		<edge from-layer="3526" from-port="2" to-layer="3579" to-port="551" />
		<edge from-layer="3527" from-port="3" to-layer="3528" to-port="0" />
		<edge from-layer="3528" from-port="2" to-layer="3579" to-port="552" />
		<edge from-layer="3529" from-port="3" to-layer="3530" to-port="0" />
		<edge from-layer="3530" from-port="2" to-layer="3579" to-port="553" />
		<edge from-layer="3531" from-port="3" to-layer="3532" to-port="0" />
		<edge from-layer="3532" from-port="2" to-layer="3579" to-port="554" />
		<edge from-layer="3533" from-port="3" to-layer="3534" to-port="0" />
		<edge from-layer="3534" from-port="2" to-layer="3579" to-port="555" />
		<edge from-layer="3535" from-port="3" to-layer="3536" to-port="0" />
		<edge from-layer="3536" from-port="2" to-layer="3579" to-port="556" />
		<edge from-layer="3537" from-port="3" to-layer="3538" to-port="0" />
		<edge from-layer="3538" from-port="2" to-layer="3579" to-port="557" />
		<edge from-layer="3539" from-port="3" to-layer="3540" to-port="0" />
		<edge from-layer="3540" from-port="2" to-layer="3579" to-port="558" />
		<edge from-layer="3541" from-port="3" to-layer="3542" to-port="0" />
		<edge from-layer="3542" from-port="2" to-layer="3579" to-port="559" />
		<edge from-layer="3543" from-port="3" to-layer="3544" to-port="0" />
		<edge from-layer="3544" from-port="2" to-layer="3579" to-port="560" />
		<edge from-layer="3545" from-port="3" to-layer="3546" to-port="0" />
		<edge from-layer="3546" from-port="2" to-layer="3579" to-port="561" />
		<edge from-layer="3547" from-port="3" to-layer="3548" to-port="0" />
		<edge from-layer="3548" from-port="2" to-layer="3579" to-port="562" />
		<edge from-layer="3549" from-port="3" to-layer="3550" to-port="0" />
		<edge from-layer="3550" from-port="2" to-layer="3579" to-port="563" />
		<edge from-layer="3551" from-port="3" to-layer="3552" to-port="0" />
		<edge from-layer="3552" from-port="2" to-layer="3579" to-port="564" />
		<edge from-layer="3553" from-port="3" to-layer="3554" to-port="0" />
		<edge from-layer="3554" from-port="2" to-layer="3579" to-port="565" />
		<edge from-layer="3555" from-port="3" to-layer="3556" to-port="0" />
		<edge from-layer="3556" from-port="2" to-layer="3579" to-port="566" />
		<edge from-layer="3557" from-port="3" to-layer="3558" to-port="0" />
		<edge from-layer="3558" from-port="2" to-layer="3579" to-port="567" />
		<edge from-layer="3559" from-port="3" to-layer="3560" to-port="0" />
		<edge from-layer="3560" from-port="2" to-layer="3579" to-port="568" />
		<edge from-layer="3561" from-port="3" to-layer="3562" to-port="0" />
		<edge from-layer="3562" from-port="2" to-layer="3579" to-port="569" />
		<edge from-layer="3563" from-port="3" to-layer="3564" to-port="0" />
		<edge from-layer="3564" from-port="2" to-layer="3579" to-port="570" />
		<edge from-layer="3565" from-port="3" to-layer="3566" to-port="0" />
		<edge from-layer="3566" from-port="2" to-layer="3579" to-port="571" />
		<edge from-layer="3567" from-port="3" to-layer="3568" to-port="0" />
		<edge from-layer="3568" from-port="2" to-layer="3579" to-port="572" />
		<edge from-layer="3569" from-port="3" to-layer="3570" to-port="0" />
		<edge from-layer="3570" from-port="2" to-layer="3579" to-port="573" />
		<edge from-layer="3571" from-port="3" to-layer="3572" to-port="0" />
		<edge from-layer="3572" from-port="2" to-layer="3579" to-port="574" />
		<edge from-layer="3573" from-port="3" to-layer="3574" to-port="0" />
		<edge from-layer="3574" from-port="2" to-layer="3579" to-port="575" />
		<edge from-layer="3575" from-port="3" to-layer="3576" to-port="0" />
		<edge from-layer="3576" from-port="2" to-layer="3579" to-port="576" />
		<edge from-layer="3577" from-port="3" to-layer="3578" to-port="0" />
		<edge from-layer="3578" from-port="2" to-layer="3579" to-port="577" />
		<edge from-layer="3579" from-port="578" to-layer="3740" to-port="1" />
		<edge from-layer="3579" from-port="578" to-layer="3820" to-port="1" />
		<edge from-layer="3579" from-port="578" to-layer="3900" to-port="1" />
		<edge from-layer="3579" from-port="578" to-layer="3660" to-port="1" />
		<edge from-layer="3579" from-port="578" to-layer="3580" to-port="1" />
		<edge from-layer="3580" from-port="2" to-layer="3583" to-port="0" />
		<edge from-layer="3580" from-port="2" to-layer="3596" to-port="0" />
		<edge from-layer="3581" from-port="0" to-layer="3582" to-port="0" />
		<edge from-layer="3582" from-port="1" to-layer="3583" to-port="1" />
		<edge from-layer="3583" from-port="2" to-layer="3586" to-port="0" />
		<edge from-layer="3584" from-port="0" to-layer="3585" to-port="0" />
		<edge from-layer="3585" from-port="1" to-layer="3586" to-port="1" />
		<edge from-layer="3586" from-port="2" to-layer="3588" to-port="0" />
		<edge from-layer="3587" from-port="0" to-layer="3588" to-port="1" />
		<edge from-layer="3588" from-port="2" to-layer="3590" to-port="0" />
		<edge from-layer="3589" from-port="0" to-layer="3590" to-port="1" />
		<edge from-layer="3590" from-port="2" to-layer="3593" to-port="0" />
		<edge from-layer="3591" from-port="0" to-layer="3592" to-port="0" />
		<edge from-layer="3592" from-port="1" to-layer="3593" to-port="1" />
		<edge from-layer="3593" from-port="2" to-layer="3604" to-port="0" />
		<edge from-layer="3594" from-port="0" to-layer="3595" to-port="0" />
		<edge from-layer="3595" from-port="1" to-layer="3596" to-port="1" />
		<edge from-layer="3596" from-port="2" to-layer="3599" to-port="0" />
		<edge from-layer="3597" from-port="0" to-layer="3598" to-port="0" />
		<edge from-layer="3598" from-port="1" to-layer="3599" to-port="1" />
		<edge from-layer="3599" from-port="2" to-layer="3601" to-port="0" />
		<edge from-layer="3600" from-port="0" to-layer="3601" to-port="1" />
		<edge from-layer="3601" from-port="2" to-layer="3603" to-port="0" />
		<edge from-layer="3602" from-port="0" to-layer="3603" to-port="1" />
		<edge from-layer="3603" from-port="2" to-layer="3604" to-port="1" />
		<edge from-layer="3604" from-port="2" to-layer="3605" to-port="0" />
		<edge from-layer="3605" from-port="1" to-layer="3616" to-port="0" />
		<edge from-layer="3606" from-port="0" to-layer="3607" to-port="0" />
		<edge from-layer="3607" from-port="1" to-layer="3608" to-port="1" />
		<edge from-layer="3608" from-port="2" to-layer="3611" to-port="0" />
		<edge from-layer="3609" from-port="0" to-layer="3610" to-port="0" />
		<edge from-layer="3610" from-port="1" to-layer="3611" to-port="1" />
		<edge from-layer="3611" from-port="2" to-layer="3613" to-port="0" />
		<edge from-layer="3612" from-port="0" to-layer="3613" to-port="1" />
		<edge from-layer="3613" from-port="2" to-layer="3615" to-port="0" />
		<edge from-layer="3614" from-port="0" to-layer="3615" to-port="1" />
		<edge from-layer="3615" from-port="2" to-layer="3616" to-port="1" />
		<edge from-layer="3616" from-port="2" to-layer="3618" to-port="0" />
		<edge from-layer="3617" from-port="0" to-layer="3618" to-port="1" />
		<edge from-layer="3618" from-port="2" to-layer="3620" to-port="0" />
		<edge from-layer="3619" from-port="0" to-layer="3620" to-port="1" />
		<edge from-layer="3620" from-port="2" to-layer="3623" to-port="0" />
		<edge from-layer="3621" from-port="0" to-layer="3622" to-port="0" />
		<edge from-layer="3622" from-port="1" to-layer="3623" to-port="1" />
		<edge from-layer="3623" from-port="2" to-layer="3626" to-port="0" />
		<edge from-layer="3624" from-port="0" to-layer="3625" to-port="0" />
		<edge from-layer="3625" from-port="1" to-layer="3626" to-port="1" />
		<edge from-layer="3626" from-port="2" to-layer="3628" to-port="0" />
		<edge from-layer="3627" from-port="0" to-layer="3628" to-port="1" />
		<edge from-layer="3628" from-port="2" to-layer="3629" to-port="1" />
		<edge from-layer="3629" from-port="2" to-layer="3631" to-port="0" />
		<edge from-layer="3630" from-port="0" to-layer="3631" to-port="1" />
		<edge from-layer="3631" from-port="2" to-layer="3634" to-port="0" />
		<edge from-layer="3632" from-port="0" to-layer="3633" to-port="0" />
		<edge from-layer="3633" from-port="1" to-layer="3634" to-port="1" />
		<edge from-layer="3634" from-port="2" to-layer="3637" to-port="0" />
		<edge from-layer="3635" from-port="0" to-layer="3636" to-port="0" />
		<edge from-layer="3636" from-port="1" to-layer="3637" to-port="1" />
		<edge from-layer="3637" from-port="2" to-layer="3651" to-port="0" />
		<edge from-layer="3637" from-port="2" to-layer="3640" to-port="0" />
		<edge from-layer="3638" from-port="0" to-layer="3639" to-port="0" />
		<edge from-layer="3639" from-port="1" to-layer="3640" to-port="1" />
		<edge from-layer="3640" from-port="2" to-layer="3643" to-port="0" />
		<edge from-layer="3641" from-port="0" to-layer="3642" to-port="0" />
		<edge from-layer="3642" from-port="1" to-layer="3643" to-port="1" />
		<edge from-layer="3643" from-port="2" to-layer="3644" to-port="0" />
		<edge from-layer="3644" from-port="1" to-layer="3647" to-port="0" />
		<edge from-layer="3645" from-port="0" to-layer="3646" to-port="0" />
		<edge from-layer="3646" from-port="1" to-layer="3647" to-port="1" />
		<edge from-layer="3647" from-port="2" to-layer="3650" to-port="0" />
		<edge from-layer="3648" from-port="0" to-layer="3649" to-port="0" />
		<edge from-layer="3649" from-port="1" to-layer="3650" to-port="1" />
		<edge from-layer="3650" from-port="2" to-layer="3651" to-port="1" />
		<edge from-layer="3651" from-port="2" to-layer="3653" to-port="0" />
		<edge from-layer="3652" from-port="0" to-layer="3653" to-port="1" />
		<edge from-layer="3653" from-port="2" to-layer="3656" to-port="0" />
		<edge from-layer="3654" from-port="0" to-layer="3655" to-port="0" />
		<edge from-layer="3655" from-port="1" to-layer="3656" to-port="1" />
		<edge from-layer="3656" from-port="2" to-layer="3659" to-port="0" />
		<edge from-layer="3657" from-port="0" to-layer="3658" to-port="0" />
		<edge from-layer="3658" from-port="1" to-layer="3659" to-port="1" />
		<edge from-layer="3659" from-port="2" to-layer="3709" to-port="0" />
		<edge from-layer="3659" from-port="2" to-layer="3660" to-port="0" />
		<edge from-layer="3659" from-port="2" to-layer="3688" to-port="0" />
		<edge from-layer="3660" from-port="2" to-layer="3663" to-port="0" />
		<edge from-layer="3660" from-port="2" to-layer="3676" to-port="0" />
		<edge from-layer="3661" from-port="0" to-layer="3662" to-port="0" />
		<edge from-layer="3662" from-port="1" to-layer="3663" to-port="1" />
		<edge from-layer="3663" from-port="2" to-layer="3666" to-port="0" />
		<edge from-layer="3664" from-port="0" to-layer="3665" to-port="0" />
		<edge from-layer="3665" from-port="1" to-layer="3666" to-port="1" />
		<edge from-layer="3666" from-port="2" to-layer="3668" to-port="0" />
		<edge from-layer="3667" from-port="0" to-layer="3668" to-port="1" />
		<edge from-layer="3668" from-port="2" to-layer="3670" to-port="0" />
		<edge from-layer="3669" from-port="0" to-layer="3670" to-port="1" />
		<edge from-layer="3670" from-port="2" to-layer="3673" to-port="0" />
		<edge from-layer="3671" from-port="0" to-layer="3672" to-port="0" />
		<edge from-layer="3672" from-port="1" to-layer="3673" to-port="1" />
		<edge from-layer="3673" from-port="2" to-layer="3684" to-port="0" />
		<edge from-layer="3674" from-port="0" to-layer="3675" to-port="0" />
		<edge from-layer="3675" from-port="1" to-layer="3676" to-port="1" />
		<edge from-layer="3676" from-port="2" to-layer="3679" to-port="0" />
		<edge from-layer="3677" from-port="0" to-layer="3678" to-port="0" />
		<edge from-layer="3678" from-port="1" to-layer="3679" to-port="1" />
		<edge from-layer="3679" from-port="2" to-layer="3681" to-port="0" />
		<edge from-layer="3680" from-port="0" to-layer="3681" to-port="1" />
		<edge from-layer="3681" from-port="2" to-layer="3683" to-port="0" />
		<edge from-layer="3682" from-port="0" to-layer="3683" to-port="1" />
		<edge from-layer="3683" from-port="2" to-layer="3684" to-port="1" />
		<edge from-layer="3684" from-port="2" to-layer="3685" to-port="0" />
		<edge from-layer="3685" from-port="1" to-layer="3696" to-port="0" />
		<edge from-layer="3686" from-port="0" to-layer="3687" to-port="0" />
		<edge from-layer="3687" from-port="1" to-layer="3688" to-port="1" />
		<edge from-layer="3688" from-port="2" to-layer="3691" to-port="0" />
		<edge from-layer="3689" from-port="0" to-layer="3690" to-port="0" />
		<edge from-layer="3690" from-port="1" to-layer="3691" to-port="1" />
		<edge from-layer="3691" from-port="2" to-layer="3693" to-port="0" />
		<edge from-layer="3692" from-port="0" to-layer="3693" to-port="1" />
		<edge from-layer="3693" from-port="2" to-layer="3695" to-port="0" />
		<edge from-layer="3694" from-port="0" to-layer="3695" to-port="1" />
		<edge from-layer="3695" from-port="2" to-layer="3696" to-port="1" />
		<edge from-layer="3696" from-port="2" to-layer="3698" to-port="0" />
		<edge from-layer="3697" from-port="0" to-layer="3698" to-port="1" />
		<edge from-layer="3698" from-port="2" to-layer="3700" to-port="0" />
		<edge from-layer="3699" from-port="0" to-layer="3700" to-port="1" />
		<edge from-layer="3700" from-port="2" to-layer="3703" to-port="0" />
		<edge from-layer="3701" from-port="0" to-layer="3702" to-port="0" />
		<edge from-layer="3702" from-port="1" to-layer="3703" to-port="1" />
		<edge from-layer="3703" from-port="2" to-layer="3706" to-port="0" />
		<edge from-layer="3704" from-port="0" to-layer="3705" to-port="0" />
		<edge from-layer="3705" from-port="1" to-layer="3706" to-port="1" />
		<edge from-layer="3706" from-port="2" to-layer="3708" to-port="0" />
		<edge from-layer="3707" from-port="0" to-layer="3708" to-port="1" />
		<edge from-layer="3708" from-port="2" to-layer="3709" to-port="1" />
		<edge from-layer="3709" from-port="2" to-layer="3711" to-port="0" />
		<edge from-layer="3710" from-port="0" to-layer="3711" to-port="1" />
		<edge from-layer="3711" from-port="2" to-layer="3714" to-port="0" />
		<edge from-layer="3712" from-port="0" to-layer="3713" to-port="0" />
		<edge from-layer="3713" from-port="1" to-layer="3714" to-port="1" />
		<edge from-layer="3714" from-port="2" to-layer="3717" to-port="0" />
		<edge from-layer="3715" from-port="0" to-layer="3716" to-port="0" />
		<edge from-layer="3716" from-port="1" to-layer="3717" to-port="1" />
		<edge from-layer="3717" from-port="2" to-layer="3720" to-port="0" />
		<edge from-layer="3717" from-port="2" to-layer="3731" to-port="0" />
		<edge from-layer="3718" from-port="0" to-layer="3719" to-port="0" />
		<edge from-layer="3719" from-port="1" to-layer="3720" to-port="1" />
		<edge from-layer="3720" from-port="2" to-layer="3723" to-port="0" />
		<edge from-layer="3721" from-port="0" to-layer="3722" to-port="0" />
		<edge from-layer="3722" from-port="1" to-layer="3723" to-port="1" />
		<edge from-layer="3723" from-port="2" to-layer="3724" to-port="0" />
		<edge from-layer="3724" from-port="1" to-layer="3727" to-port="0" />
		<edge from-layer="3725" from-port="0" to-layer="3726" to-port="0" />
		<edge from-layer="3726" from-port="1" to-layer="3727" to-port="1" />
		<edge from-layer="3727" from-port="2" to-layer="3730" to-port="0" />
		<edge from-layer="3728" from-port="0" to-layer="3729" to-port="0" />
		<edge from-layer="3729" from-port="1" to-layer="3730" to-port="1" />
		<edge from-layer="3730" from-port="2" to-layer="3731" to-port="1" />
		<edge from-layer="3731" from-port="2" to-layer="3733" to-port="0" />
		<edge from-layer="3732" from-port="0" to-layer="3733" to-port="1" />
		<edge from-layer="3733" from-port="2" to-layer="3736" to-port="0" />
		<edge from-layer="3734" from-port="0" to-layer="3735" to-port="0" />
		<edge from-layer="3735" from-port="1" to-layer="3736" to-port="1" />
		<edge from-layer="3736" from-port="2" to-layer="3739" to-port="0" />
		<edge from-layer="3737" from-port="0" to-layer="3738" to-port="0" />
		<edge from-layer="3738" from-port="1" to-layer="3739" to-port="1" />
		<edge from-layer="3739" from-port="2" to-layer="3768" to-port="0" />
		<edge from-layer="3739" from-port="2" to-layer="3789" to-port="0" />
		<edge from-layer="3739" from-port="2" to-layer="3740" to-port="0" />
		<edge from-layer="3740" from-port="2" to-layer="3743" to-port="0" />
		<edge from-layer="3740" from-port="2" to-layer="3756" to-port="0" />
		<edge from-layer="3741" from-port="0" to-layer="3742" to-port="0" />
		<edge from-layer="3742" from-port="1" to-layer="3743" to-port="1" />
		<edge from-layer="3743" from-port="2" to-layer="3746" to-port="0" />
		<edge from-layer="3744" from-port="0" to-layer="3745" to-port="0" />
		<edge from-layer="3745" from-port="1" to-layer="3746" to-port="1" />
		<edge from-layer="3746" from-port="2" to-layer="3748" to-port="0" />
		<edge from-layer="3747" from-port="0" to-layer="3748" to-port="1" />
		<edge from-layer="3748" from-port="2" to-layer="3750" to-port="0" />
		<edge from-layer="3749" from-port="0" to-layer="3750" to-port="1" />
		<edge from-layer="3750" from-port="2" to-layer="3753" to-port="0" />
		<edge from-layer="3751" from-port="0" to-layer="3752" to-port="0" />
		<edge from-layer="3752" from-port="1" to-layer="3753" to-port="1" />
		<edge from-layer="3753" from-port="2" to-layer="3764" to-port="0" />
		<edge from-layer="3754" from-port="0" to-layer="3755" to-port="0" />
		<edge from-layer="3755" from-port="1" to-layer="3756" to-port="1" />
		<edge from-layer="3756" from-port="2" to-layer="3759" to-port="0" />
		<edge from-layer="3757" from-port="0" to-layer="3758" to-port="0" />
		<edge from-layer="3758" from-port="1" to-layer="3759" to-port="1" />
		<edge from-layer="3759" from-port="2" to-layer="3761" to-port="0" />
		<edge from-layer="3760" from-port="0" to-layer="3761" to-port="1" />
		<edge from-layer="3761" from-port="2" to-layer="3763" to-port="0" />
		<edge from-layer="3762" from-port="0" to-layer="3763" to-port="1" />
		<edge from-layer="3763" from-port="2" to-layer="3764" to-port="1" />
		<edge from-layer="3764" from-port="2" to-layer="3765" to-port="0" />
		<edge from-layer="3765" from-port="1" to-layer="3776" to-port="0" />
		<edge from-layer="3766" from-port="0" to-layer="3767" to-port="0" />
		<edge from-layer="3767" from-port="1" to-layer="3768" to-port="1" />
		<edge from-layer="3768" from-port="2" to-layer="3771" to-port="0" />
		<edge from-layer="3769" from-port="0" to-layer="3770" to-port="0" />
		<edge from-layer="3770" from-port="1" to-layer="3771" to-port="1" />
		<edge from-layer="3771" from-port="2" to-layer="3773" to-port="0" />
		<edge from-layer="3772" from-port="0" to-layer="3773" to-port="1" />
		<edge from-layer="3773" from-port="2" to-layer="3775" to-port="0" />
		<edge from-layer="3774" from-port="0" to-layer="3775" to-port="1" />
		<edge from-layer="3775" from-port="2" to-layer="3776" to-port="1" />
		<edge from-layer="3776" from-port="2" to-layer="3778" to-port="0" />
		<edge from-layer="3777" from-port="0" to-layer="3778" to-port="1" />
		<edge from-layer="3778" from-port="2" to-layer="3780" to-port="0" />
		<edge from-layer="3779" from-port="0" to-layer="3780" to-port="1" />
		<edge from-layer="3780" from-port="2" to-layer="3783" to-port="0" />
		<edge from-layer="3781" from-port="0" to-layer="3782" to-port="0" />
		<edge from-layer="3782" from-port="1" to-layer="3783" to-port="1" />
		<edge from-layer="3783" from-port="2" to-layer="3786" to-port="0" />
		<edge from-layer="3784" from-port="0" to-layer="3785" to-port="0" />
		<edge from-layer="3785" from-port="1" to-layer="3786" to-port="1" />
		<edge from-layer="3786" from-port="2" to-layer="3788" to-port="0" />
		<edge from-layer="3787" from-port="0" to-layer="3788" to-port="1" />
		<edge from-layer="3788" from-port="2" to-layer="3789" to-port="1" />
		<edge from-layer="3789" from-port="2" to-layer="3791" to-port="0" />
		<edge from-layer="3790" from-port="0" to-layer="3791" to-port="1" />
		<edge from-layer="3791" from-port="2" to-layer="3794" to-port="0" />
		<edge from-layer="3792" from-port="0" to-layer="3793" to-port="0" />
		<edge from-layer="3793" from-port="1" to-layer="3794" to-port="1" />
		<edge from-layer="3794" from-port="2" to-layer="3797" to-port="0" />
		<edge from-layer="3795" from-port="0" to-layer="3796" to-port="0" />
		<edge from-layer="3796" from-port="1" to-layer="3797" to-port="1" />
		<edge from-layer="3797" from-port="2" to-layer="3811" to-port="0" />
		<edge from-layer="3797" from-port="2" to-layer="3800" to-port="0" />
		<edge from-layer="3798" from-port="0" to-layer="3799" to-port="0" />
		<edge from-layer="3799" from-port="1" to-layer="3800" to-port="1" />
		<edge from-layer="3800" from-port="2" to-layer="3803" to-port="0" />
		<edge from-layer="3801" from-port="0" to-layer="3802" to-port="0" />
		<edge from-layer="3802" from-port="1" to-layer="3803" to-port="1" />
		<edge from-layer="3803" from-port="2" to-layer="3804" to-port="0" />
		<edge from-layer="3804" from-port="1" to-layer="3807" to-port="0" />
		<edge from-layer="3805" from-port="0" to-layer="3806" to-port="0" />
		<edge from-layer="3806" from-port="1" to-layer="3807" to-port="1" />
		<edge from-layer="3807" from-port="2" to-layer="3810" to-port="0" />
		<edge from-layer="3808" from-port="0" to-layer="3809" to-port="0" />
		<edge from-layer="3809" from-port="1" to-layer="3810" to-port="1" />
		<edge from-layer="3810" from-port="2" to-layer="3811" to-port="1" />
		<edge from-layer="3811" from-port="2" to-layer="3813" to-port="0" />
		<edge from-layer="3812" from-port="0" to-layer="3813" to-port="1" />
		<edge from-layer="3813" from-port="2" to-layer="3816" to-port="0" />
		<edge from-layer="3814" from-port="0" to-layer="3815" to-port="0" />
		<edge from-layer="3815" from-port="1" to-layer="3816" to-port="1" />
		<edge from-layer="3816" from-port="2" to-layer="3819" to-port="0" />
		<edge from-layer="3817" from-port="0" to-layer="3818" to-port="0" />
		<edge from-layer="3818" from-port="1" to-layer="3819" to-port="1" />
		<edge from-layer="3819" from-port="2" to-layer="3869" to-port="0" />
		<edge from-layer="3819" from-port="2" to-layer="3848" to-port="0" />
		<edge from-layer="3819" from-port="2" to-layer="3820" to-port="0" />
		<edge from-layer="3820" from-port="2" to-layer="3823" to-port="0" />
		<edge from-layer="3820" from-port="2" to-layer="3836" to-port="0" />
		<edge from-layer="3821" from-port="0" to-layer="3822" to-port="0" />
		<edge from-layer="3822" from-port="1" to-layer="3823" to-port="1" />
		<edge from-layer="3823" from-port="2" to-layer="3826" to-port="0" />
		<edge from-layer="3824" from-port="0" to-layer="3825" to-port="0" />
		<edge from-layer="3825" from-port="1" to-layer="3826" to-port="1" />
		<edge from-layer="3826" from-port="2" to-layer="3828" to-port="0" />
		<edge from-layer="3827" from-port="0" to-layer="3828" to-port="1" />
		<edge from-layer="3828" from-port="2" to-layer="3830" to-port="0" />
		<edge from-layer="3829" from-port="0" to-layer="3830" to-port="1" />
		<edge from-layer="3830" from-port="2" to-layer="3833" to-port="0" />
		<edge from-layer="3831" from-port="0" to-layer="3832" to-port="0" />
		<edge from-layer="3832" from-port="1" to-layer="3833" to-port="1" />
		<edge from-layer="3833" from-port="2" to-layer="3844" to-port="0" />
		<edge from-layer="3834" from-port="0" to-layer="3835" to-port="0" />
		<edge from-layer="3835" from-port="1" to-layer="3836" to-port="1" />
		<edge from-layer="3836" from-port="2" to-layer="3839" to-port="0" />
		<edge from-layer="3837" from-port="0" to-layer="3838" to-port="0" />
		<edge from-layer="3838" from-port="1" to-layer="3839" to-port="1" />
		<edge from-layer="3839" from-port="2" to-layer="3841" to-port="0" />
		<edge from-layer="3840" from-port="0" to-layer="3841" to-port="1" />
		<edge from-layer="3841" from-port="2" to-layer="3843" to-port="0" />
		<edge from-layer="3842" from-port="0" to-layer="3843" to-port="1" />
		<edge from-layer="3843" from-port="2" to-layer="3844" to-port="1" />
		<edge from-layer="3844" from-port="2" to-layer="3845" to-port="0" />
		<edge from-layer="3845" from-port="1" to-layer="3856" to-port="0" />
		<edge from-layer="3846" from-port="0" to-layer="3847" to-port="0" />
		<edge from-layer="3847" from-port="1" to-layer="3848" to-port="1" />
		<edge from-layer="3848" from-port="2" to-layer="3851" to-port="0" />
		<edge from-layer="3849" from-port="0" to-layer="3850" to-port="0" />
		<edge from-layer="3850" from-port="1" to-layer="3851" to-port="1" />
		<edge from-layer="3851" from-port="2" to-layer="3853" to-port="0" />
		<edge from-layer="3852" from-port="0" to-layer="3853" to-port="1" />
		<edge from-layer="3853" from-port="2" to-layer="3855" to-port="0" />
		<edge from-layer="3854" from-port="0" to-layer="3855" to-port="1" />
		<edge from-layer="3855" from-port="2" to-layer="3856" to-port="1" />
		<edge from-layer="3856" from-port="2" to-layer="3858" to-port="0" />
		<edge from-layer="3857" from-port="0" to-layer="3858" to-port="1" />
		<edge from-layer="3858" from-port="2" to-layer="3860" to-port="0" />
		<edge from-layer="3859" from-port="0" to-layer="3860" to-port="1" />
		<edge from-layer="3860" from-port="2" to-layer="3863" to-port="0" />
		<edge from-layer="3861" from-port="0" to-layer="3862" to-port="0" />
		<edge from-layer="3862" from-port="1" to-layer="3863" to-port="1" />
		<edge from-layer="3863" from-port="2" to-layer="3866" to-port="0" />
		<edge from-layer="3864" from-port="0" to-layer="3865" to-port="0" />
		<edge from-layer="3865" from-port="1" to-layer="3866" to-port="1" />
		<edge from-layer="3866" from-port="2" to-layer="3868" to-port="0" />
		<edge from-layer="3867" from-port="0" to-layer="3868" to-port="1" />
		<edge from-layer="3868" from-port="2" to-layer="3869" to-port="1" />
		<edge from-layer="3869" from-port="2" to-layer="3871" to-port="0" />
		<edge from-layer="3870" from-port="0" to-layer="3871" to-port="1" />
		<edge from-layer="3871" from-port="2" to-layer="3874" to-port="0" />
		<edge from-layer="3872" from-port="0" to-layer="3873" to-port="0" />
		<edge from-layer="3873" from-port="1" to-layer="3874" to-port="1" />
		<edge from-layer="3874" from-port="2" to-layer="3877" to-port="0" />
		<edge from-layer="3875" from-port="0" to-layer="3876" to-port="0" />
		<edge from-layer="3876" from-port="1" to-layer="3877" to-port="1" />
		<edge from-layer="3877" from-port="2" to-layer="3891" to-port="0" />
		<edge from-layer="3877" from-port="2" to-layer="3880" to-port="0" />
		<edge from-layer="3878" from-port="0" to-layer="3879" to-port="0" />
		<edge from-layer="3879" from-port="1" to-layer="3880" to-port="1" />
		<edge from-layer="3880" from-port="2" to-layer="3883" to-port="0" />
		<edge from-layer="3881" from-port="0" to-layer="3882" to-port="0" />
		<edge from-layer="3882" from-port="1" to-layer="3883" to-port="1" />
		<edge from-layer="3883" from-port="2" to-layer="3884" to-port="0" />
		<edge from-layer="3884" from-port="1" to-layer="3887" to-port="0" />
		<edge from-layer="3885" from-port="0" to-layer="3886" to-port="0" />
		<edge from-layer="3886" from-port="1" to-layer="3887" to-port="1" />
		<edge from-layer="3887" from-port="2" to-layer="3890" to-port="0" />
		<edge from-layer="3888" from-port="0" to-layer="3889" to-port="0" />
		<edge from-layer="3889" from-port="1" to-layer="3890" to-port="1" />
		<edge from-layer="3890" from-port="2" to-layer="3891" to-port="1" />
		<edge from-layer="3891" from-port="2" to-layer="3893" to-port="0" />
		<edge from-layer="3892" from-port="0" to-layer="3893" to-port="1" />
		<edge from-layer="3893" from-port="2" to-layer="3896" to-port="0" />
		<edge from-layer="3894" from-port="0" to-layer="3895" to-port="0" />
		<edge from-layer="3895" from-port="1" to-layer="3896" to-port="1" />
		<edge from-layer="3896" from-port="2" to-layer="3899" to-port="0" />
		<edge from-layer="3897" from-port="0" to-layer="3898" to-port="0" />
		<edge from-layer="3898" from-port="1" to-layer="3899" to-port="1" />
		<edge from-layer="3899" from-port="2" to-layer="3915" to-port="0" />
		<edge from-layer="3899" from-port="2" to-layer="3900" to-port="0" />
		<edge from-layer="3900" from-port="2" to-layer="3903" to-port="0" />
		<edge from-layer="3901" from-port="0" to-layer="3902" to-port="0" />
		<edge from-layer="3902" from-port="1" to-layer="3903" to-port="1" />
		<edge from-layer="3903" from-port="2" to-layer="3906" to-port="0" />
		<edge from-layer="3904" from-port="0" to-layer="3905" to-port="0" />
		<edge from-layer="3905" from-port="1" to-layer="3906" to-port="1" />
		<edge from-layer="3906" from-port="2" to-layer="3908" to-port="0" />
		<edge from-layer="3907" from-port="0" to-layer="3908" to-port="1" />
		<edge from-layer="3908" from-port="2" to-layer="3910" to-port="0" />
		<edge from-layer="3909" from-port="0" to-layer="3910" to-port="1" />
		<edge from-layer="3910" from-port="2" to-layer="3911" to-port="1" />
		<edge from-layer="3911" from-port="2" to-layer="3912" to-port="0" />
		<edge from-layer="3912" from-port="1" to-layer="3923" to-port="0" />
		<edge from-layer="3913" from-port="0" to-layer="3914" to-port="0" />
		<edge from-layer="3914" from-port="1" to-layer="3915" to-port="1" />
		<edge from-layer="3915" from-port="2" to-layer="3918" to-port="0" />
		<edge from-layer="3916" from-port="0" to-layer="3917" to-port="0" />
		<edge from-layer="3917" from-port="1" to-layer="3918" to-port="1" />
		<edge from-layer="3918" from-port="2" to-layer="3920" to-port="0" />
		<edge from-layer="3919" from-port="0" to-layer="3920" to-port="1" />
		<edge from-layer="3920" from-port="2" to-layer="3922" to-port="0" />
		<edge from-layer="3921" from-port="0" to-layer="3922" to-port="1" />
		<edge from-layer="3922" from-port="2" to-layer="3923" to-port="1" />
		<edge from-layer="3923" from-port="2" to-layer="3925" to-port="0" />
		<edge from-layer="3924" from-port="0" to-layer="3925" to-port="1" />
		<edge from-layer="3925" from-port="2" to-layer="3927" to-port="0" />
		<edge from-layer="3926" from-port="0" to-layer="3927" to-port="1" />
		<edge from-layer="3927" from-port="2" to-layer="3930" to-port="0" />
		<edge from-layer="3928" from-port="0" to-layer="3929" to-port="0" />
		<edge from-layer="3929" from-port="1" to-layer="3930" to-port="1" />
		<edge from-layer="3930" from-port="2" to-layer="3933" to-port="0" />
		<edge from-layer="3931" from-port="0" to-layer="3932" to-port="0" />
		<edge from-layer="3932" from-port="1" to-layer="3933" to-port="1" />
		<edge from-layer="3933" from-port="2" to-layer="3935" to-port="0" />
		<edge from-layer="3934" from-port="0" to-layer="3935" to-port="1" />
		<edge from-layer="3935" from-port="2" to-layer="3936" to-port="1" />
		<edge from-layer="3936" from-port="2" to-layer="3938" to-port="0" />
		<edge from-layer="3937" from-port="0" to-layer="3938" to-port="1" />
		<edge from-layer="3938" from-port="2" to-layer="3941" to-port="0" />
		<edge from-layer="3939" from-port="0" to-layer="3940" to-port="0" />
		<edge from-layer="3940" from-port="1" to-layer="3941" to-port="1" />
		<edge from-layer="3941" from-port="2" to-layer="3944" to-port="0" />
		<edge from-layer="3942" from-port="0" to-layer="3943" to-port="0" />
		<edge from-layer="3943" from-port="1" to-layer="3944" to-port="1" />
		<edge from-layer="3944" from-port="2" to-layer="3958" to-port="0" />
		<edge from-layer="3944" from-port="2" to-layer="3947" to-port="0" />
		<edge from-layer="3945" from-port="0" to-layer="3946" to-port="0" />
		<edge from-layer="3946" from-port="1" to-layer="3947" to-port="1" />
		<edge from-layer="3947" from-port="2" to-layer="3950" to-port="0" />
		<edge from-layer="3948" from-port="0" to-layer="3949" to-port="0" />
		<edge from-layer="3949" from-port="1" to-layer="3950" to-port="1" />
		<edge from-layer="3950" from-port="2" to-layer="3951" to-port="0" />
		<edge from-layer="3951" from-port="1" to-layer="3954" to-port="0" />
		<edge from-layer="3952" from-port="0" to-layer="3953" to-port="0" />
		<edge from-layer="3953" from-port="1" to-layer="3954" to-port="1" />
		<edge from-layer="3954" from-port="2" to-layer="3957" to-port="0" />
		<edge from-layer="3955" from-port="0" to-layer="3956" to-port="0" />
		<edge from-layer="3956" from-port="1" to-layer="3957" to-port="1" />
		<edge from-layer="3957" from-port="2" to-layer="3958" to-port="1" />
		<edge from-layer="3958" from-port="2" to-layer="3960" to-port="0" />
		<edge from-layer="3959" from-port="0" to-layer="3960" to-port="1" />
		<edge from-layer="3960" from-port="2" to-layer="3963" to-port="0" />
		<edge from-layer="3961" from-port="0" to-layer="3962" to-port="0" />
		<edge from-layer="3962" from-port="1" to-layer="3963" to-port="1" />
		<edge from-layer="3963" from-port="2" to-layer="3966" to-port="0" />
		<edge from-layer="3964" from-port="0" to-layer="3965" to-port="0" />
		<edge from-layer="3965" from-port="1" to-layer="3966" to-port="1" />
		<edge from-layer="3966" from-port="2" to-layer="3968" to-port="0" />
		<edge from-layer="3967" from-port="0" to-layer="3968" to-port="1" />
		<edge from-layer="3968" from-port="2" to-layer="3971" to-port="0" />
		<edge from-layer="3969" from-port="0" to-layer="3970" to-port="0" />
		<edge from-layer="3970" from-port="1" to-layer="3971" to-port="1" />
		<edge from-layer="3971" from-port="2" to-layer="3974" to-port="0" />
		<edge from-layer="3972" from-port="0" to-layer="3973" to-port="0" />
		<edge from-layer="3973" from-port="1" to-layer="3974" to-port="1" />
		<edge from-layer="3974" from-port="2" to-layer="3976" to-port="0" />
		<edge from-layer="3975" from-port="0" to-layer="3976" to-port="1" />
		<edge from-layer="3976" from-port="2" to-layer="3979" to-port="0" />
		<edge from-layer="3977" from-port="0" to-layer="3978" to-port="0" />
		<edge from-layer="3978" from-port="1" to-layer="3979" to-port="1" />
		<edge from-layer="3979" from-port="2" to-layer="3982" to-port="0" />
		<edge from-layer="3980" from-port="0" to-layer="3981" to-port="0" />
		<edge from-layer="3981" from-port="1" to-layer="3982" to-port="1" />
		<edge from-layer="3982" from-port="2" to-layer="3985" to-port="0" />
		<edge from-layer="3983" from-port="0" to-layer="3984" to-port="0" />
		<edge from-layer="3984" from-port="1" to-layer="3985" to-port="1" />
		<edge from-layer="3985" from-port="2" to-layer="3986" to-port="0" />
	</edges>
	<rt_info>
		<Runtime_version value="2026.1.0-21367-63e31528c62-releases/2026/1" />
		<conversion_parameters>
			<framework value="pytorch" />
			<is_python_object value="True" />
		</conversion_parameters>
	</rt_info>
</net>
